models/TACEnet_vessel_enhancement_29052024.pth (torch, 315698 bytes, 13 tensors)

lrm.conv1.weight f4 [32, 1, 3, 3, 3]
00000000: 1e38 633a 8959 c4be c483 32be b775 8e3d
00000010: 2fe3 85be 8412 acbe 7ccf 00be 1b71 cfbe
00000020: b23d 48be 60b5 3cbd 6ec3 cabe a247 e63d
00000030: 1191 9b3e 163b 243d 4df1 cabe 78f4 cabe
00000040: 5f26 3d3d b0fa 39be 173c 4dbd 7153 a8be
00000050: 73ae 5dbe fa54 503d c1af 8fbe 8df7 c9bc
00000060: 971a b5be 4ff9 e0be 98b4 e23d 8ba0 bbbe
00000070: e3b8 77bf 654d d83d bfdd e53d 3a9d a73e
00000080: 79b5 2ebe b959 e43d 7c69 c2bd a7d0 d73d
00000090: d84f aa3e f987 25bf 812e 9a3e d47a 1dbe
000000a0: 4dc1 e53e 41d0 a13d 4fd6 aabb dc0d 8bbe
000000b0: 309d ffbd 56ad 353d 0bf4 c0be 68a1 d8be
000000c0: e125 b83c ea9f ae3e 47aa f23d b252 9abe
000000d0: 89d2 463e 7a0e dcbe 6bea 93be 7925 18be
000000e0: c200 e43b 87fc 5ebe f74d 42be c3f2 223c
000000f0: 8982 27be 9796 2fbe 1d23 9cbe 5eba 27be
00000100: db72 2e3e b964 66be b42f 143e 5020 b83d
00000110: e78a 37bd 9bc1 18be c4c5 13be 5066 66be
00000120: 359a 80be 2a89 763d 60b4 293e 5041 98ba
00000130: c0f3 4f3d 1107 fd3d 878e 9fbc fe7a 32be
00000140: 0461 333e 8b48 83be e67b 163d 4d1f 83bc
00000150: 6d7f c7be db4c a1bd 2ba6 e8bc b53f 24bd
00000160: bf88 16bc 5627 52bd b45f c6be d3be dd3d
00000170: c565 2f3e 611f 0ebf 44ea 84be 6e16 4ebe
00000180: efaa 0cbe 5c46 cbbe 21e8 47bf 6e93 c33e
00000190: 7d48 f33e e812 dc3e 86d3 0c3e 7886 a23d
000001a0: a019 dd3e a207 aebe d571 f2be 2631 2fbf
000001b0: 5bc9 f5bc e5ef c6be 6bcb 49bc e14f 9fbb
000001c0: a896 05be c5d1 53bf 20fd 63bf 39c9 65be
000001d0: 1bbd dc3d e39a f0bc cfdb dabe c374 6bbd
000001e0: 5c92 abbe f05a f9be ee25 87be 0a12 1ebf
000001f0: a464 65bd 970d f5bd 888d c93c 5b3f 7a3e
00000200: 2f0e 553f d1e0 2dbd c12f 4e3e 7da8 a13e
00000210: 2c52 4e3e 1650 8a3e 7f2e 7dbd 8026 a0bd
00000220: 394a cc3e 02d1 d8be cf74 6fbe 144b 7d3e
00000230: 7b90 0fbf 6dd9 89be 029a bf3d 8555 16bf
00000240: 27c7 1abd c337 c53d 9143 d3bc c0fc 43bf
00000250: 9c18 973e 718e 01bf dbee 45be 75ba d33e
00000260: f62e c9be 6e61 d4bd 0d59 de3e 44f7 453c
00000270: 120f 57be 69a2 163e e5f4 c93e e5d3 cf3c
00000280: 0fe5 adbd 5d84 f83e 8874 d4be cf27 d63e
00000290: 919e a83d efb7 37bd 93a6 22be cfb9 183e
000002a0: 5678 1a3e 572b c0be e688 90be 8abe abbd
000002b0: d3b3 fb3d 4571 273e 22c5 b93c 1046 323d
000002c0: b2f6 a0be 7b78 3e3e ebf9 94bd aff0 57bc
000002d0: 00a5 bcbd e782 46bd 8c2d 2d3f c621 4e3e
000002e0: e558 b4bd fc01 1abf f67a b23e 8395 443d
000002f0: dbec ffbe 7ff8 11be fcb4 08be b8ea 09bf
00000300: fb9f 77be 880e 85be 0fc3 0abf 6e37 d33d
00000310: f91d 79be cf2d 03bf a2d8 323e 405d 143e
00000320: 96a9 53be ae96 e63c 858a dabd a206 d0be
00000330: 8545 0d3e 59c5 f8bd 95bb 4c3e f349 273e
00000340: 7f8f 223e 8530 f5be 1a4f e83d b97c 88bc
00000350: 1122 88bc 045b 8f3e 0a2b 11bd d2e4 f3be
00000360: 1e9a 0ebe d7c1 c7be d409 19bf f0b9 593e
00000370: 0e06 e9be 52fc 0cbf fd94 a53e f31e 95be
00000380: c869 1fbf 2323 a8ba 9e17 1ebe d03a eb3d
00000390: 2502 b13e a49f 9fbe 0a2d 51be 9d9a c53c
000003a0: c126 dbbe 759f 2bbe 610b 47bd 61b1 b43e
000003b0: a541 d73e 46bd 0bbc 27ce 53bd 6358 183f
000003c0: 82a1 71bf 5cc4 55be f474 ff3e ac84 38be
000003d0: 9516 afbe ff04 4dbe 23ec 31be caa6 06bf
000003e0: 6bac 39be 7d74 43be 5c2f f6be 3b92 2fbe
000003f0: 618e 0bbe 5f26 2cbc 64b3 cebb 2fbe 8bbe
0.0008667725 -0.3834956 -0.17433077 0.06956046 -0.2614989 -0.33607876 -0.12579149 -0.4051598
-0.19554785 -0.04607141 -0.39602226 0.112441316 0.30384114 0.04009541 -0.39637223 -0.3963964
0.04617917 -0.18162036 -0.050106134 -0.3287616 -0.21648578 0.05086229 -0.28063777 -0.024654174
-0.3537185 -0.43940207 0.11069602 -0.36645922 -0.9676649 0.10561637 0.11223935 0.32737142
-0.17061414 0.11149926 -0.09492776 0.10537844 0.3326404 -0.646606 0.30113605 -0.15378886
0.4487404 0.079010494 -0.005213536 -0.2715901 -0.12481153 0.04435476 -0.3768619 -0.42310643
0.022479 0.3410638 0.11848884 -0.30141217 0.1941625 -0.42979795 -0.28889784 -0.14858045
0.006958098 -0.21776019 -0.18975054 0.009945574 -0.16358389 -0.17147289 -0.3049554 -0.16379687
0.17036001 -0.2249936 0.14471322 0.08990538 -0.044810202 -0.14917605 -0.1443091 -0.22499967
-0.2511765 0.060189404 0.16572714 -0.0011616144 0.050769567 0.123548634 -0.019477142 -0.1742973
0.17517477 -0.25641283 0.036739253 -0.016006136 -0.38964406 -0.07875987 -0.028399548 -0.04009982
-0.009187876 -0.051307045 -0.3874489 0.108274125 0.17128666 -0.5551663 -0.2595998 -0.20125744
-0.13737081 -0.39702117 -0.78088576 0.38198417 0.47516242 0.42983174 0.13752565 0.07935804
0.43183613 -0.33990198 -0.47352472 -0.6843437 -0.03000324 -0.388549 -0.012316565 -0.004861817
-0.13045752 -0.8274196 -0.89058113 -0.22440042 0.107782565 -0.02937073 -0.42745826 -0.0574844
-0.335101 -0.48702192 -0.26396126 -0.61746275 -0.05600418 -0.11965483 0.02460362 0.2443823
0.8322477 -0.04245073 0.20135404 0.3157386 0.20148534 0.27014226 -0.06181192 -0.07819843
0.39900377 -0.4234696 -0.23384403 0.24735671 -0.56079835 -0.26923695 0.093555465 -0.5872424
-0.037787583 0.09629776 -0.025789054 -0.7655754 0.29510963 -0.50607973 -0.19329397 0.41353193
-0.3929364 -0.10370146 0.43427315 0.0120828785 -0.21001843 0.14710392 0.39444652 0.025369594
-0.08490955 0.48538485 -0.41495156 0.41827247 0.08233369 -0.044853147 -0.15883856 0.1491463
0.15084967 -0.37533066 -0.28229445 -0.08385952 0.12290158 0.16351803 0.022677008 0.043523848
-0.31438214 0.18600647 -0.072742306 -0.013179942 -0.09211159 -0.048464682 0.67647624 0.20130071
-0.08806018 -0.6015928 0.34859437 0.047994148 -0.49985394 -0.1425495 -0.1335029 -0.5387378
-0.24182121 -0.2598765 -0.54203886 0.10313307 -0.2432784 -0.51241773 0.17465451 0.14488697
-0.2067016 0.028148022 -0.10670952 -0.4063006 0.13796051 -0.12147016 0.19993432 0.16336803
0.15875052 -0.4788858 0.113432124 -0.016661035 -0.016617807 0.27999127 -0.035441436 -0.47635514
-0.13925979 -0.39015076 -0.5978062 0.21262336 -0.45512432 -0.5507251 0.32340232 -0.29125175
-0.62270784 -0.0012827854 -0.15438697 0.11485827 0.3457195 -0.31176484 -0.20427337 0.024121577
-0.42803004 -0.16760047 -0.048594836 0.3529158 0.4204227 -0.008529013 -0.051710274 0.5950987
-0.94387066 -0.20875686 0.49893916 -0.1801936 -0.34196916 -0.20021437 -0.17375235 -0.5259825
-0.18132178 -0.19087406 -0.48083007 -0.17145626 -0.13628532 -0.010507195 -0.006308006 -0.27293536

lrm.conv1.bias f4 [32]
00000000: a697 063d 6db2 febd 7ccc da3d 97fc f6bb
00000010: 336a d3b9 2e3e c5bc 993f 9fbd a4bd a0b9
00000020: d911 c7bb 81e5 1f3e 106b 2cbc d43e 8dbc
00000030: 5806 bcbb fb5f baba abad b9ba 4b8e 84bb
00000040: 04e7 8bbc 3c95 81bc 030a de3d 6b80 e53d
00000050: 85b6 673d 8bc7 a8b8 86e0 8c3d e603 b8bb
00000060: 9ced 973d 2bef 153c ac43 b2bd 8484 26bc
00000070: a466 b3bb 7ec4 55bd 937e 43ba 1789 203c
0.032859467 -0.12436376 0.106835335 -0.0075374353 -0.0004032418 -0.024077501 -0.07775802 -0.0003065887
-0.0060751257 0.15614893 -0.010523573 -0.017241873 -0.005738061 -0.0014219278 -0.0014166137 -0.004045283
-0.01707793 -0.01581823 0.10841753 0.112061344 0.05657055 -8.048032e-05 0.06878762 -0.005615699
0.07418367 0.00915126 -0.08704314 -0.01016343 -0.005474882 -0.052189343 -0.00074575207 0.00979831

lrm.conv2.weight f4 [64, 32, 3, 3, 3]
00000000: 065e aebd dc35 1d3b f1b4 de3c 09c1 53bd
00000010: c61d c53d 95ac e23b 9433 f3bc bf98 31bb
00000020: f313 083d 1802 d0bd 3942 32bd e206 17bd
00000030: 35ca 54bd cf1d f9bc 686b afbd fd6e 82bd
00000040: 7035 35bc 36f3 f83b b04c 1cbd 3562 f3bc
00000050: 3bfc 13bc 65a1 d3bc d53d 85bc 74c2 97bc
00000060: eadb b8bc 4bc2 22bd a123 913c e703 0d3f
00000070: 551a 153f 6168 013f d93d 063f 4be7 c93e
00000080: cbb6 133f d4ef 053f da8a e43e f599 433e
00000090: 0b2f 043f 7ab4 0e3f b9a2 6b3e eb17 7b3c
000000a0: b4db a63d 87c8 4f3e 6928 c13e 8ed8 a0bb
000000b0: 8a49 21be a820 8c3e e41d 073f 8176 31bc
000000c0: e37f 29be 43cd e3be 0151 14bf 2e24 9abe
000000d0: 58e0 08bf 7802 34bf 63e2 ac3d 75c4 1f3e
000000e0: 57e4 303d 918d b53d 1ada c23d 0c5c 7b3b
000000f0: c2ba 9f3c aea8 d83c 87d8 613d d6a8 d6bc
00000100: 0a13 2fbd ab99 cdbd 439c 82bc 3497 14bc
00000110: 2100 bdbd c6b3 7c3c 54c4 b3bc ae3d b3bd
00000120: fb2d 43bd 128b b5bd 76b7 04bd a70e 90bd
00000130: 3c55 afbd 2bad 7fbd 5b38 493c 1a37 33bd
00000140: e607 6ebd 671d 7d3e 0165 a33e 8192 0d3e
00000150: b32e 673e 0078 08bc f815 5c3d 6daf 9d3e
00000160: 6759 e1bd 01d6 dbbd 3002 4a3e dc07 833d
00000170: d013 033e 2e5b f8bd 167c e5be 4c20 8cbe
00000180: 4a71 e7bd cb23 10bf 19d9 afbe 0e71 f7bd
00000190: b66f c4be a9ee 3b3d 3d30 02bf 27e4 8ebf
000001a0: 5a17 afbe 9f82 62bd 9c9f 47bf e0d7 eebe
000001b0: e33e 123e fc07 2d3d 6116 2abd 10ad 053e
000001c0: f3ec 603c 8046 593c 8796 59bb 8cd4 5a3b
000001d0: d5ff b63d 9ce3 25be 0251 11be 6a91 48be
000001e0: 3325 30be 2129 eebb c4b7 e0bd b623 ca3b
000001f0: c0da a53d f817 4bbd e6e8 c1be ebd6 65bd
00000200: 4a94 bfbd b793 59be ebaf 463d f812 26bd
00000210: f68d aa3d f6dd 82bd 9fe8 21be 615a 853e
00000220: 0724 8cbd e6fe 89bc 1338 b93d f504 16be
00000230: ccbd 023e 6fdf b23d ebca b2bd 3b65 2b3e
00000240: 0edb 6f3d a78b a6bd ac5b 00be 2a4d 6dbd
00000250: 730c 13be 9ef8 19bd abb6 40bd b3a9 c6bc
00000260: f6a1 0e3c 693e 0dbd d09d 32be 64df 97bc
00000270: dd21 35be e88c 32be 9c88 6abe a72b 81be
00000280: 754b 80bd 40db ccbe de3c cd3e f50a 4e3e
00000290: 7af7 1e3e 1bbf 553e 3530 c6bc 6171 923c
000002a0: 49d0 4b3e a017 5abe a47e c3bd 1104 5c3e
000002b0: c0fc 013e 6553 8d3d 232c a73c 8e30 a0bc
000002c0: a68e 7bbc 4d86 e93c 071f 11be 2c33 853c
000002d0: 4ff6 1f3d dd42 f03c 147e 42bd 171b a0be
000002e0: 9033 0ebe a690 e0bd 5116 51be f352 d5be
000002f0: 5b0e 45bd fe38 37be fe34 593d 501d b63d
00000300: 26c6 093d e930 e7bc 4380 8e3d 97d3 f43d
00000310: 140b 35bb 1a01 693d a653 67bd 7537 8ebd
00000320: 23c6 273d 6d68 92bd 80af 1fbe aeda 983c
00000330: 2793 01bd 4723 d0bd f77a 943d 5fe2 e23d
00000340: 6494 29be 97e0 75bc d7e0 68bc 0e82 3ebe
00000350: 54b3 62bb 1b65 4fbd 7432 bcbd 3a4d 823d
00000360: 57f9 813e dcd9 9dba 078d 91bd 454c 8f3e
00000370: 1ad7 893c 03fe 08be d8d3 0d3e 3abb 3c3e
00000380: 290a 31bd 95d8 14bd b972 fe3c 1511 703d
00000390: 7a21 033e 9330 ebbd f481 ecbd 32f5 b93e
000003a0: f971 b53d 52ba 9dbe d8f1 91be bec5 d7bd
000003b0: 200a f73d 4dfc afbe 29b6 c3be 6503 32be
000003c0: 1e93 0b3e ad59 20be 544e 43be 3b27 833d
000003d0: ff23 c73d adb4 bcbc ce78 c73d 6036 aa3d
000003e0: 23f0 8fbd c26d ab3d aa34 dc3d e235 a03c
000003f0: 0ca8 15bd aa36 89bd 0b0c efbd 502c 94bd
-0.08514027 0.0023988402 0.027185889 -0.051697765 0.096248195 0.006917546 -0.02968768 -0.00270991
0.03322215 -0.10156649 -0.043520186 -0.0368718 -0.051950652 -0.030409722 -0.08565408 -0.063688256
-0.011060104 0.0075973524 -0.038159072 -0.029709915 -0.009032304 -0.025833795 -0.016264835 -0.01852534
-0.0225658 -0.039736073 0.017717184 0.5508408 0.58243304 0.50549895 0.5243812 0.39434275
0.57700795 0.52319074 0.44637185 0.19101699 0.5163428 0.55744135 0.23011293 0.015325527
0.08147374 0.20291339 0.37726143 -0.004908628 -0.15750709 0.27368665 0.52779984 -0.010831476
-0.16552691 -0.4449254 -0.579361 -0.30105728 -0.5346732 -0.70316267 0.08441617 0.15602286
0.04318651 0.08864892 0.09514256 0.0038354425 0.019498233 0.02644762 0.055138137 -0.026203554
-0.042742766 -0.100390755 -0.015943652 -0.009069253 -0.0922854 0.015423721 -0.021944202 -0.08751999
-0.047651272 -0.08864416 -0.032401524 -0.07034045 -0.08561179 -0.062421005 0.012281503 -0.04375372
-0.058113 0.24718247 0.31912997 0.13825418 0.22576408 -0.0083293915 0.05373189 0.30797902
-0.1100338 -0.107341774 0.19727397 0.063979834 0.12800527 -0.12126766 -0.44821233 -0.2736839
-0.11300905 -0.56304616 -0.3434532 -0.1208211 -0.3836648 0.0458819 -0.50854856 -1.1163377
-0.34197503 -0.05530035 -0.7797792 -0.46649075 0.14281802 0.042243943 -0.04152525 0.130543
0.013728368 0.013261437 -0.0033201294 0.0033390848 0.08935515 -0.16200107 -0.14191058 -0.19586721
-0.1720169 -0.0072680865 -0.109725505 0.006168808 0.08098364 -0.049583405 -0.37873 -0.056113165
-0.09354456 -0.21247755 0.048507612 -0.040545434 0.08327858 -0.06389992 -0.15811394 0.26045516
-0.06842809 -0.016845178 0.090438984 -0.14650328 0.12767714 0.08734023 -0.0873011 0.16737835
0.058558516 -0.08132105 -0.1253497 -0.057934918 -0.14360218 -0.037590615 -0.047049206 -0.02425084
0.008705607 -0.034483347 -0.17443013 -0.018539138 -0.17688699 -0.17436564 -0.22903675 -0.25228617
-0.06264392 -0.40011024 0.400855 0.20121367 0.15524092 0.20873682 -0.024192909 0.017876329
0.19903673 -0.21298075 -0.09545639 0.21485926 0.12694073 0.06900672 0.020406788 -0.019554403
-0.015353834 0.028506422 -0.14171992 0.016259752 0.039053258 0.029328758 -0.04748352 -0.31270668
-0.13886857 -0.109650895 -0.2041867 -0.41664848 -0.048109394 -0.17892835 0.053029053 0.0889231
0.033636235 -0.028221564 0.06958058 0.1195442 -0.0027625011 0.056885816 -0.056476258 -0.06944171
0.040960442 -0.07148824 -0.15594292 0.018658962 -0.031634476 -0.101629786 0.07250016 0.11078333
-0.16560513 -0.01500716 -0.014213762 -0.186043 -0.0034591751 -0.05063353 -0.09189311 0.06362386
0.25385544 -0.0012043077 -0.07106977 0.27987877 0.016826201 -0.13378148 0.13850343 0.18430796
-0.04322258 -0.03633936 0.031060563 0.05861004 0.12805739 -0.11483874 -0.11548224 0.36319882
0.08859629 -0.30806214 -0.28504825 -0.10535763 0.12062478 -0.34372178 -0.38224915 -0.17384107
0.1363034 -0.15659209 -0.19072849 0.06403967 0.097236626 -0.023035372 0.097398385 0.083111525
-0.07028224 0.08370544 0.107522324 0.019556943 -0.036537215 -0.066998795 -0.11672219 -0.072350144

lrm.conv2.bias f4 [64]
00000000: 2224 cf3c e707 78ba db56 06bd ddbb 30bd
00000010: f908 9ebd 1430 c93d 461a e2bc 2546 51bd
00000020: 97f2 22bd e03e 6abd e734 62bd a946 debc
00000030: 1826 54bd a32f 38bd 8aa7 6cbd 4445 05bd
00000040: 1ceb d0bb b83a dbbc c40e edba 69b1 ef3c
00000050: 53f9 06bd 50ad a43d 6cea a93d 26d9 073c
00000060: de9f 4ebd 08a1 8fbc 2a54 733d 073b 323a
00000070: ddd6 d2bc b021 65bd 6639 1dbd 71ff 38bd
00000080: 3976 dbbc 5960 783c fec0 babc ddc3 81bd
00000090: e9b2 02bd f8d2 1e3d 0a55 f93c d7b5 aa3b
000000a0: 05a6 013c 6af7 2b3d 83c9 5fbd 7b4e eabc
000000b0: 7c67 8bbd 88eb 0fbd b2bf e13b 727c 843c
000000c0: 34b9 35bb d50c be3c 68d3 623c dacf 7ebd
000000d0: 5c18 0bbd de6d fbbc d699 0ebd 1943 803d
000000e0: ef29 3fbd 6f12 c13c b718 813b 0686 2e3d
000000f0: 8dc5 73bc acb0 5fbd 41ab 87bc b54c e13c
0.025285784 -0.0009461627 -0.032797676 -0.04314791 -0.07716555 0.09823623 -0.027600419 -0.051092286
-0.039782133 -0.05718887 -0.055226233 -0.027133303 -0.05179414 -0.044967305 -0.057776965 -0.03253676
-0.0063756835 -0.026761398 -0.0018086066 0.0292594 -0.032952618 0.08040869 0.082966655 0.008291518
-0.05044543 -0.01753284 0.059406437 0.0006798957 -0.02573722 -0.05594033 -0.038384818 -0.045165483
-0.026789771 0.01515969 -0.022797104 -0.06336186 -0.031908903 0.038775414 0.030436058 0.0052096653
0.007913117 0.041984 -0.054635536 -0.028601876 -0.068068475 -0.03513673 0.006889307 0.016172621
-0.0027728798 0.023199478 0.0138443485 -0.06220994 -0.033958778 -0.030692037 -0.034814678 0.06262798
-0.04667085 0.02356836 0.003939714 0.042608283 -0.014878643 -0.054611847 -0.016561152 0.027502397

lrm.conv3.weight f4 [1, 64, 3, 3, 3]
00000000: 1c6f c93e 130b 803d 4761 b43c 05c5 703e
00000010: bd88 e7bc cc26 e4bd a585 143e 8b81 9f3c
00000020: fcde 1cbe 1718 973e 9fdb 6c3d 0d3c 9dbd
00000030: 06ac c83d bd36 11be d83f 85be 8778 2a3d
00000040: 8f16 1dbe 6a11 81be cd89 703e 086c a23d
00000050: 26ee 14bd f9d0 f13c c0df 08be 62bd 45be
00000060: 0747 e8bd d5e8 69be 3d31 56be 68bb 4c3d
00000070: 5288 0ebd bd8a 72bd d45b 703c 406d 0cbd
00000080: 2750 b4bd f2d9 483d 7aab 7c3c edb9 4fbd
00000090: 0fde f9bc 94f9 643c a8d3 45bd b385 103b
000000a0: 92ab 19bd 0f61 91bd 538a ee3a 2cac 193b
000000b0: 211f 95bd a6f0 b3bc da21 523d f65f 8b3b
000000c0: acb9 21bc d4f4 49bc 6803 eabc 4316 ce3c
000000d0: 7154 19bc 1bfa 0bbd 3afc a6bc 0128 d8bc
000000e0: 56f5 f8bc df63 f63c 5ae3 513b 8c75 2dba
000000f0: 16d1 9a3c b38a 80ba 8876 a93c e8bb 06bd
00000100: 7c50 483c 1a66 1fbd f9ee 0bbc 5e43 a9bc
00000110: e2e4 99bc 554d 38bc ed46 143c ceb2 78bb
00000120: 1b18 bcbb 4669 8abc 0d76 26bd 2153 84b9
00000130: 72b0 58bc 04ee 06bd b4f6 893c 2cef 0a3c
00000140: f4ea c23c 12a4 193d 2efc 91bc 6dce f73c
00000150: ecc8 333c e219 063c e70d dd3c 39ed 933c
00000160: 054d 553c d884 a43c c7ca e33b a5e4 83bc
00000170: d5eb b33b 7aa1 8b3c 3637 6f3c 3bc5 c53c
00000180: f2a1 a53c 8800 85bb be29 893c 1fa9 61bc
00000190: 63ed f83b 6303 91bc 73a1 233c d05a b2bb
000001a0: 3e0f a6bc 4d6f 903c 84ad 3abc d1e5 853c
000001b0: 72cc 40bf 9962 15bf af93 e8be f307 10bf
000001c0: 2ce7 28bf 9c77 17bf aea7 15bf 6d3e b5be
000001d0: 0dc1 a9be 8141 00bf caa3 8abe 3f4d a4be
000001e0: 439e 71be 010b 50be d06d ebbe d71b 0bbf
000001f0: 4081 0dbf ab7f 7cbf 4942 29bf bf6a 91bf
00000200: 3ea4 babf 99a0 02bf 640b 68bf f980 9cbf
00000210: f8f6 2bbf 26b6 35bf 3eee 89bf 21d3 14bf
00000220: f2bc 2ebe b738 f8be 246c 0cbf 7475 95be
00000230: 9a7f cabe 4ecd 1ebf e0ae ffbe e2eb 08bf
00000240: 17cf 38bf e6d0 debe 0fb0 36bf ded8 11bf
00000250: 6b43 cabe 86c3 07bf fe95 47bf 9680 26bf
00000260: b995 4dbf afa4 3abf ae6e 46bf b95b 5abf
00000270: 38f9 38bf fb99 37bf dab7 4cbf b678 31bf
00000280: 7c95 43bf 7ace 80bf d9cf 1a3e 9248 d53d
00000290: 0991 e93d bc83 e3bb 2cf0 823d 66e4 853c
000002a0: 4245 16bd 3948 d0bc 884a bebc f5aa a2be
000002b0: 141c ffbd 207a 9fbc 3de4 58be 056f 25bc
000002c0: d95c ddbb 475a febc 5bc6 833d aca9 983d
000002d0: 2df2 0bbf b850 3ebe 84ce abbd be86 47be
000002e0: 6bf8 583c 5fbe e73d 4479 843d aafb ae3d
000002f0: 5ad3 d83d e15d ffbc 4bd6 8b3c f780 003d
00000300: e7f1 81bc aa9b a7bb 38c0 cc3c 8efe b5bc
00000310: 4578 533c 9592 913c 94eb 0abd 8612 c1bc
00000320: 9476 c13c 2392 54bd 5548 fcbb ed79 f13b
00000330: a224 d7bc 2c3b 87bc 2b2d 203d c1f5 dabc
00000340: 5e58 6abc 1227 65bc 4afc 593b 377f d3bc
00000350: 3927 4a3c 0023 38bc 0330 21bc 66cb df3c
00000360: fa2f 073e 6cdf 583d 7814 113e b1e6 a53d
00000370: d2a6 2b3d 7b87 d93d 8de5 0f3c 15cc ab3d
00000380: 6a2a d23d 6405 31bd 0ae8 253d ae4b 133e
00000390: 36ef 01be e22d 1d3d c9f5 ad3d fdf1 77be
000003a0: 7a65 a43d 73ed 5d3d e562 f2bd 09d0 3fbe
000003b0: a77b 743d d361 87be 585a 9bbe 5d8e 093d
000003c0: 6a87 e3be b78b a8be 3bc2 17bc 3cb3 29bc
000003d0: e1e5 ab3b a5c3 e93c 4d62 f6ba 441d 89bc
000003e0: 45e2 603c d525 b13a f802 563c 723c 043c
000003f0: 5209 5d3b 6414 c1bc 48b2 163d 2a67 4f3c
0.39342582 0.06252112 0.022019042 0.23512657 -0.028263444 -0.111402124 0.14504106 0.01947095
-0.15319437 0.29510567 0.057826634 -0.076774694 0.09798436 -0.14181037 -0.2602527 0.04161885
-0.15340637 -0.25208598 0.23490067 0.079307616 -0.03635993 0.029518591 -0.13366604 -0.19310525
-0.113416724 -0.22842725 -0.2091722 0.049983412 -0.034797974 -0.059214342 0.014670331 -0.034283876
-0.0880435 0.049035974 0.015421743 -0.050714422 -0.030501394 0.01397552 -0.048297554 0.0022052347
-0.037517138 -0.070985906 0.0018199183 0.002344857 -0.07281328 -0.021965336 0.051301815 0.004253383
-0.009870928 -0.012326438 -0.028566077 0.0251571 -0.009358511 -0.034174066 -0.020383943 -0.026386263
-0.030390423 0.03007692 0.0032026381 -0.0006616942 0.018898528 -0.0009806961 0.020686403 -0.032894045
0.01222622 -0.03891573 -0.008540862 -0.020662006 -0.018785898 -0.011248906 0.009050113 -0.0037948373
-0.0057401783 -0.016895901 -0.040639926 -0.00025238938 -0.013225662 -0.032941833 0.01684127 0.008479875
0.023793675 0.037509985 -0.017820444 0.030249799 0.0109731965 0.008184882 0.026984168 0.018057453
0.013018851 0.020082876 0.006951663 -0.016100237 0.00549076 0.017044771 0.014600566 0.024141898
0.020218823 -0.004058901 0.016743537 -0.013773232 0.007596658 -0.01770181 0.009987223 -0.0054429546
-0.02027094 0.017631197 -0.011393908 0.016344937 -0.7531196 -0.58353573 -0.45425174 -0.5626213
-0.6597774 -0.59166884 -0.58458984 -0.3539919 -0.331551 -0.5009995 -0.27078086 -0.32090184
-0.23595528 -0.20316698 -0.45982218 -0.54339355 -0.55275345 -0.98632306 -0.6611677 -1.1360701
-1.4581373 -0.510263 -0.9064238 -1.2226859 -0.6717372 -0.7098106 -1.0775831 -0.5813466
-0.17064264 -0.4848077 -0.5485251 -0.29191172 -0.39550477 -0.6203202 -0.49938107 -0.5348493
-0.72190994 -0.43518752 -0.71362394 -0.5697154 -0.3950456 -0.5303272 -0.77963245 -0.65039957
-0.80306584 -0.7290754 -0.77512634 -0.8529621 -0.7225528 -0.7171933 -0.79968035 -0.69324815
-0.7639997 -1.0063012 0.1511835 0.10414232 0.114046164 -0.006943194 0.063934654 0.01634426
-0.036687143 -0.025425063 -0.023228899 -0.31771055 -0.12456527 -0.019467413 -0.21180816 -0.01009727
-0.006755453 -0.031048907 0.06434318 0.07454237 -0.54666406 -0.1858548 -0.08388999 -0.19484994
0.013242821 0.11315607 0.06468442 0.08544095 0.10587187 -0.031172695 0.017069956 0.03137299
-0.015862418 -0.005114992 0.024994 -0.022216108 0.012907092 0.017770091 -0.03391607 -0.023568403
0.023616113 -0.05189718 -0.0076990523 0.007369271 -0.026262585 -0.016507708 0.039105576 -0.026728513
-0.014303295 -0.013986366 0.0033261948 -0.025817497 0.012338453 -0.011238813 -0.009838107 0.027318668
0.13201895 0.052947447 0.14167964 0.081006415 0.04190714 0.10621544 0.0087827565 0.08388535
0.10261996 -0.04321803 0.040504493 0.14384338 -0.12688908 0.038373835 0.084941454 -0.24213405
0.080271676 0.054181527 -0.11835269 -0.18731703 0.059688237 -0.2644182 -0.30342364 0.033583034
-0.4443925 -0.32919094 -0.009262617 -0.010357674 0.0052459096 0.028535673 -0.0018797606 -0.016737588
0.013725822 0.0013515303 0.013062231 0.008071052 0.003372748 -0.023569293 0.036791116 0.012658874

lrm.conv4.weight f4 [32, 48, 3, 3]
00000000: 0f1b 5ebd 1129 61bd a554 60bd 9ba1 8bbb
00000010: 8974 cabb c4cd 203c 86f5 98bd 52c4 70bc
00000020: ce7e 09ba 2a35 9ebd 6409 25bd f599 64bd
00000030: 41b1 86bd 8d3a cabb 1b84 d2bc 6863 24bc
00000040: 40f7 5cbd bd0c 33bd 1b13 18bd 69f8 b6bc
00000050: 0db0 26bb 8ddb 57bd 25cf 1bbd ac7b 3dbd
00000060: fa0d 27bd 8906 49bd df5d b9bc 544d a2bd
00000070: 6e71 86bc 7d3e db3b a537 84bd 21d5 11bd
00000080: f6e3 4fbd 8dce 3a3c 3159 88bc 2052 59bd
00000090: 929e aabc 22f7 62bd 0a94 98bd f490 d3bc
000000a0: 3d5a 1f3c 102b 12bc 3c4e 79bc 3e9f b6bc
000000b0: b096 99bd fcb1 0cbd 89f7 abbc ac6e 7dbc
000000c0: 92d7 5cbd 1f7a 87bd 1a7d c5bb 2026 ad3b
000000d0: 13a0 16bd 5513 99bd 7de5 4c3c 8082 15bc
000000e0: 31c2 03bb 3cad 8fbd cc77 96bd 55d6 debc
000000f0: f795 85bb 63a4 a3bd bb5b 89bd cc1e 18bc
00000100: 1779 9fbc 9427 6fbd b24c 6abd a5e8 00bd
00000110: 6fa7 43bb ca0a 0cbd 9dd2 90bd 90a8 69bd
00000120: 47b5 29bd b2df a0bd 3cee 91bd 557c 68bd
00000130: 0575 1d3c d965 98bd 883b 8cbd db89 08bd
00000140: bcdf 7ebc 4b59 803c b4b7 a3ba f171 93bd
00000150: b37b d5bc b80d 60bd 294c 0cbd dd1a 57bd
00000160: 6575 80bd 15aa 21bd 5cbb 703c 688e 81bd
00000170: a0e0 70bd 7684 75bd 6062 43ba da97 80bd
00000180: 0657 70bd 9172 67bd a86a 143c a0a9 66bc
00000190: 4dc5 a2bd b8ef 5abd a54e 84bd 4865 93bd
000001a0: b793 8dbd 915c cd3b 4b39 8ebd 9040 8bbd
000001b0: c422 f83b b20d 8bbd 856d 2fbc fa8f 4bbd
000001c0: 06cb 8bbc 97e1 93bd 383f 143c fbbf 913a
000001d0: f9ff 0cbd 654a 72bd 5b8e 47bb db4c 9bbd
000001e0: 4def 523c 2f88 87bd 01aa 69bd 4676 48bd
000001f0: 35f5 4abc 8838 8dbd dbd0 08bc 9636 3ebd
00000200: 3119 63bd 4b79 423b 3c73 3fbb fa50 b3bc
00000210: e58c c5bc e1ee 11bd 58e9 10bc 4d82 e7bc
00000220: 5a06 96bc a2ec 57bc 34e6 a2bd f221 9abd
00000230: 7b34 09bd e8db 94bd 2bd8 94bd 5f93 afbc
00000240: 26e6 a2bd 18a2 a2bd 792e 47bd d202 5dbd
00000250: a581 92bd 9546 f0bc 3ef6 1ebd f1e8 e53b
00000260: 4e51 4d3c b5e8 4fbd 7d54 21bc 6bf2 77bd
00000270: 0475 c8bc 625b 35bd 3fb5 42bd 5d31 82bd
00000280: ea75 16bd 4fdc 39bd cd35 a2bd 3c51 a0bd
00000290: 6907 a1bd 6235 15bd b6d7 9cbd dfaf 6bbd
000002a0: bd2c 0ebd 3783 d1bc 9753 003c a6c3 423c
000002b0: db28 1c3b 7596 1bbc 2b9f 69bc eeec f6bc
000002c0: b07d 0bbd 7fbf b2bc 9dbe 12bd 9101 88bd
000002d0: 94c0 4b3c 7948 58bd a2a9 86bd e4d6 7fbd
000002e0: a80c 153c 8366 8fbd 8edc 353c 6ad1 7c3c
000002f0: 0994 95bd 65e1 19bc 2425 3bbd f6ce ecbc
00000300: af86 7ebd 0d94 8cbd 78c3 91bd 232c 79bd
00000310: 0c88 eebc 7e65 0e3b 7c72 593c aa2e 7bbc
00000320: c614 c2bb 5ebd 30bd 3afb 60bd 3bb6 b1bc
00000330: 1df6 4dbd a25c 9abd 11f1 32bd 510e b93b
00000340: 01de 2bbc 7adf 5c3a ed47 92bd 1d94 cdbc
00000350: d23b 793a 21a8 4abc a8ca 87bd 0baf 48bd
00000360: b5a1 f93c 09ed 533d 58f3 f6bc 404e 0cbd
00000370: 0ee6 2abd 54db b73b 19c4 96bd a81d 36bc
00000380: e020 c8bc fd51 63bc 5481 8a3d 3415 83bc
00000390: 7396 9ebd 1446 80bc fb42 45bd fc85 4dbd
000003a0: 857b ed3a 22f3 23bd 5af2 84bd 090d babc
000003b0: 9905 7fbd 799a 82bd c0f1 58bd fb9b cf3b
000003c0: 0474 193b 0feb ecbc be62 5fbd 4a64 2e3c
000003d0: 99b5 cebb 34f4 553c d112 12bb 5d9a ad39
000003e0: 3368 42bd b681 353b 9450 3ebb 3396 4dbd
000003f0: 1523 b8bb efbf 12bd 22c7 09bd 544f 26bc
-0.054225024 -0.054970805 -0.054768223 -0.004261208 -0.006178443 0.009814683 -0.07468705 -0.014695244
-0.00052450306 -0.07724984 -0.04029216 -0.055810887 -0.06576777 -0.0061715306 -0.025697758 -0.010033466
-0.053946733 -0.04371332 -0.037127595 -0.022335248 -0.0025434524 -0.052699614 -0.038039345 -0.04626052
-0.040784813 -0.049078498 -0.022627769 -0.079249054 -0.01641151 0.006690799 -0.06455926 -0.035603646
-0.05075451 0.011401785 -0.016644092 -0.053056836 -0.020827565 -0.055411465 -0.07450111 -0.025825955
0.009726104 -0.0089214 -0.015216406 -0.02229273 -0.074994445 -0.034349427 -0.020992057 -0.015468281
-0.05391652 -0.066150896 -0.006026876 0.005284086 -0.036773752 -0.074743904 0.012505886 -0.009125352
-0.002010476 -0.07015464 -0.07347068 -0.02720181 -0.004076715 -0.07990339 -0.06706949 -0.009284686
-0.01946692 -0.058387354 -0.05720205 -0.031471867 -0.0029854437 -0.034189977 -0.07071421 -0.05704552
-0.041432645 -0.078551665 -0.07125518 -0.056759197 0.009610419 -0.07441301 -0.06847292 -0.033334594
-0.015556272 0.015667578 -0.0012490661 -0.07199467 -0.026059961 -0.054700583 -0.03425232 -0.052515853
-0.06272391 -0.039468843 0.014693107 -0.0632599 -0.05880797 -0.059940778 -0.00074533187 -0.062789634
-0.058676742 -0.056505743 0.009058632 -0.014078528 -0.079477884 -0.05345127 -0.06460313 -0.07197052
-0.0691294 0.0062671383 -0.069445215 -0.06799424 0.0075725038 -0.067897215 -0.010707264 -0.049697854
-0.017064583 -0.07220762 0.009048276 0.0011119837 -0.034423802 -0.05915298 -0.003044984 -0.075830184
0.012874437 -0.06617772 -0.057046894 -0.04894092 -0.0123875635 -0.06895548 -0.008350576 -0.046438776
-0.055443946 0.0029674347 -0.0029212972 -0.021889199 -0.024115035 -0.035628203 -0.008844696 -0.028260374
-0.018313576 -0.013178976 -0.07954064 -0.07526006 -0.033497315 -0.07268506 -0.07267793 -0.021432577
-0.079540536 -0.07941073 -0.048628304 -0.053957768 -0.07153634 -0.029330531 -0.038809054 0.007016294
0.012531592 -0.050759036 -0.009846804 -0.060533922 -0.02446986 -0.044276603 -0.04753613 -0.063570715
-0.036733545 -0.04537612 -0.07920418 -0.07827994 -0.078627415 -0.036427863 -0.07658331 -0.05754077
-0.034710634 -0.025575263 0.007832429 0.011887467 0.0023828063 -0.009496321 -0.01425914 -0.030142274
-0.03405541 -0.021819828 -0.035826314 -0.06640924 0.012436051 -0.05280349 -0.06575324 -0.062460795
0.009097256 -0.070019744 0.011099948 0.015430788 -0.07303626 -0.009392117 -0.045689717 -0.02890728
-0.062140163 -0.06864176 -0.07117361 -0.060833108 -0.029117607 0.0021727975 0.013271924 -0.01533095
-0.0059228865 -0.043149345 -0.05492709 -0.02169334 -0.05028354 -0.075371996 -0.04368693 0.0056474586
-0.010489942 0.00084256346 -0.07142625 -0.02509504 0.000950751 -0.012369187 -0.066304505 -0.04899506
0.030472616 0.051739726 -0.030145332 -0.034254313 -0.041723303 0.0056108627 -0.073616214 -0.011115469
-0.024429739 -0.013874528 0.06762949 -0.016001321 -0.0774354 -0.015658416 -0.04815958 -0.050176606
0.0018118477 -0.04002679 -0.064915374 -0.022711294 -0.062261198 -0.063771196 -0.052964926 0.006335733
0.0023415098 -0.028920678 -0.054537527 0.010644028 -0.006308269 0.013058711 -0.0022289047 0.0003311214
-0.047462653 0.0027695722 -0.0029039728 -0.05019207 -0.0056194165 -0.035827573 -0.033637173 -0.010150749

lrm.conv4.bias f4 [32]
00000000: 6b8d 4dbd 762b 063b 71b2 f3bc ab46 0bbd
00000010: 375e 24bd 301a 1ebd d373 8dbd 9e78 0cbd
00000020: 489d 86bd 4ca8 713e a308 05bd 738d 41bc
00000030: c821 6e3c 673f 1dbd b944 0dbd 25d1 83bc
00000040: 4e7e 3f3c bbda 86bd 9443 08bd 1856 84bd
00000050: 40e0 8bbd 02c2 fabc 6b7d 80bd 50be b7bc
00000060: c972 c6bc bc16 87bc 38f5 05bd 27a6 4ebd
00000070: 7c75 a53c 9990 5abd 2e2b 8fbd 93a6 c9bc
-0.050183695 0.0020472682 -0.029748173 -0.03400294 -0.040128913 -0.038599193 -0.06906857 -0.034294717
-0.06572968 0.23599356 -0.03247894 -0.011813509 0.014534421 -0.038390543 -0.034489367 -0.016090939
0.011687828 -0.06584688 -0.033267573 -0.064617336 -0.06829882 -0.030610088 -0.062739216 -0.022429615
-0.024224656 -0.016490333 -0.032704562 -0.050451424 0.020197622 -0.053360555 -0.06990658 -0.024615562

lrm.conv5.weight f4 [1, 32, 3, 3]
00000000: 98a3 26bd 78ed abbc 2864 803b 8fb5 e9bc
00000010: e1b5 2dbb 0fbc 253c f44b 59bc cce9 6cbc
00000020: 1034 883a 59f9 20bd 9205 19bc e3e1 fa3c
00000030: f6ea c73c 5a2f f1b8 78b5 8dbc caa4 f5bb
00000040: 88fd d03c 6cd0 3fbc 2f43 a9bb 77a2 84bc
00000050: 709d 813d c018 393c 473e 123c 62c3 10bd
00000060: 18d9 fbbc 9b5d 4cbd 4ffa 93bd ee93 ac3a
00000070: d6d8 0739 8ac8 523d a4ed d0bc a537 5abd
00000080: 290a 57bc 73fc 9cbc 9be7 bb3c 77d8 4ebc
00000090: 7843 66bd b0d9 1ebd aead 5f3d 8e52 e13c
000000a0: 4c72 45bd 6c24 5bbd eb1e dd3c 5395 2f3d
000000b0: e556 86bc 365b 713c 3ffa 1bbc 498c 57bd
000000c0: 0b9d 8e3c aa1f 763d 722e 4ebd e15a 35bd
000000d0: 2f29 363d 9fbb 91bc b839 273d b482 3dbc
000000e0: 6012 72bc 20d4 4b3c a876 15bd 271e 993b
000000f0: a436 24bd bac0 26bb 2dea 22bd c0c2 bb3a
00000100: bfa5 e8ba 1430 5ebb a1b6 8fbd 3333 26bc
00000110: 5345 afbb aa86 79bd 1fbf 7e3d f5d7 043d
00000120: 15b1 823d 7f33 283c 926c 2b3d 5948 a6bd
00000130: dcb1 9b3a 81d3 163c beec 12bd 063a c9bd
00000140: 1bef 593b 4a88 953c e1db 2b3d f85f bcbc
00000150: 0120 9f3d ce26 a33d a6b5 81bc 99bf 973d
00000160: 7d6b 663c e7ca 403d e6e3 16bc a4ad 393d
00000170: d097 03bb fdce 94bc 7a56 153d e8ac e83c
00000180: d13d 75bd 1b17 61bb cf6b 0abd ca69 b13c
00000190: c6b0 463c da49 083d 958a 363d 3503 963c
000001a0: 29f8 513a 0dea 86bc a66b 423d f77c c93b
000001b0: f69d 3ebd c897 c4bc 62d7 8a3d 2816 a13c
000001c0: 0108 ab3d 423a 77bc 3662 2ebc b7e2 b7bc
000001d0: 50cd 17bc 6423 90bd 41ab 0a3d 2a7d 2ebd
000001e0: cfdf e8b9 3311 273d c4fb b03c 1bef 18bc
000001f0: b3d4 06bd 7961 7d3c bead 04bd 873a c63c
00000200: 4ea7 6bbd d774 223d 997c 4c3b 6f05 983c
00000210: 8ff2 77bd 3c8b 1b3d 5fc1 15bd 6ad1 95bd
00000220: 502f 0cbd 82ef 80bd 610f 8c3c 8aa1 f83b
00000230: 886d 16bd a39b 113d a0b6 ffba 7755 94bd
00000240: b57d 213c 2ab3 5fbd 0517 35bd 3861 903a
00000250: 20a5 bb3c c494 1b3d 02bc de3b 8b9f 95bc
00000260: 6204 143d 2411 103d 2bbb 9bbc e354 21bc
00000270: 95aa a7bb 8298 8ebd 98db f93c 8612 23bc
00000280: 4014 8ebc 4912 50bc 6b5e 86bc 5535 5a3c
00000290: 801e a6bd eada a3bc 6fab 84bc c8c1 eebc
000002a0: 4b53 87bd 05ef d3bc e7f8 f23b 419c 5c3d
000002b0: b327 05bc ba11 1cbd c382 13bd c8cd f53c
000002c0: 108e c0bb f648 c73c 689a 83bc aacc 493d
000002d0: e683 b3bc cdb6 20bd da6a ddbc b2fd 32bd
000002e0: 81e8 743c 7e39 0abd e8b0 e8bc 15c1 aebc
000002f0: 13ca 363d 706a ce3b 6448 173d 043f 73bd
00000300: 50fe 5fbd ec60 6f3c bd68 e0bc a263 4dba
00000310: c33e 183d e70c b03c f7c5 f4bc 2e44 2fba
00000320: 96be 9bbd 0904 57ba 8cdd ce3c f940 8fbd
00000330: 6a2f 6f3c 5e45 94bc aedd a23c a2b4 ad39
00000340: 19d8 0e3d 4fe6 593a ae89 47bd 5c43 4f3d
00000350: 38d2 09bd d1d3 50bd e0a0 a33c ed30 4f3d
00000360: 2e76 5abd 4f23 0fbb 5760 15bd 672b 3c3d
00000370: 816c ddbc f221 77bc a3dd c53c 0072 0f3c
00000380: 3edb 5c3d 6361 08bc c97c 8a3b 5b70 58bd
00000390: 4888 4b3c 7e90 3abc 3bfb 1f3d 4abf 57bd
000003a0: a94b 11bd f04b 48ba e9ae 1d3d 5771 013d
000003b0: 77b6 2cbd d37d 39bc e91e 70bd 82b8 54bd
000003c0: 72ee 4fbc fe4a 633c eabf ae3c 51fa f9bc
000003d0: eb2f 6c3d 8a47 b33c 944c 69bb dff0 25bd
000003e0: c786 8dbc 165a b1bc f021 2abd d799 10bd
000003f0: b027 d1bc 8733 57bd 7e29 1d3d 44c1 df3c
-0.04068336 -0.020987257 0.0039181896 -0.028528957 -0.0026506113 0.010115637 -0.013262738 -0.014460038
0.0010391492 -0.039300296 -0.009339707 0.03062529 0.02440403 -0.000115005954 -0.017298445 -0.007496451
0.025511518 -0.0117074065 -0.0051654796 -0.01619075 0.06328857 0.011297405 0.008925981 -0.03534258
-0.030743167 -0.049893957 -0.07225477 0.0013166645 0.00012955381 0.05146078 -0.02550394 -0.053275723
-0.013124981 -0.019163346 0.022937587 -0.012624851 -0.056216687 -0.03878182 0.054608993 0.027505185
-0.048204705 -0.05350153 0.026992282 0.042867016 -0.016398856 0.014731219 -0.009520113 -0.05262402
0.017408868 0.06008879 -0.050337262 -0.044276122 0.04447287 -0.01778966 0.04082653 -0.011566807
-0.014774889 0.012440711 -0.036490113 0.004672784 -0.04009117 -0.0025444464 -0.03977411 0.0014325008
-0.0017749591 -0.0033903169 -0.070172556 -0.010144043 -0.0053488403 -0.06091944 0.062193986 0.032432515
0.06381432 0.010266184 0.041851588 -0.08119268 0.0011878568 0.0092057 -0.035870306 -0.0982552
0.003325409 0.018253464 0.04195774 -0.02299498 0.07769776 0.07966386 -0.015833687 0.07409591
0.014063713 0.047068503 -0.009209609 0.045331612 -0.00200795 -0.018165106 0.036459424 0.02840276
-0.059873406 -0.0034346047 -0.03379422 0.02165689 0.012127107 0.033273555 0.044565756 0.018312076
0.0008009696 -0.016469026 0.047465943 0.00614893 -0.046537362 -0.023998156 0.06779362 0.019663885
0.08351136 -0.015089573 -0.0106435325 -0.022446973 -0.009265259 -0.07038 0.033854727 -0.042599835
-0.0004441724 0.040787887 0.021604426 -0.009334351 -0.03291769 0.015465134 -0.032392256 0.02419783
-0.0575326 0.03966221 0.0031202196 0.018557278 -0.060534056 0.03797458 -0.036561366 -0.07315333
-0.03422481 -0.062956825 0.017097177 0.0075876163 -0.03672555 0.035548817 -0.0019509383 -0.072428636
0.009856631 -0.054614224 -0.044211406 0.0011015302 0.022905886 0.03798367 0.0067973146 -0.018264553
0.036136992 0.035172597 -0.019010147 -0.009846899 -0.0051167705 -0.06962682 0.030500218 -0.009953147
-0.01734364 -0.012699672 -0.016402444 0.013318379 -0.08111286 -0.020001847 -0.016195027 -0.029145136
-0.06607684 -0.02587081 0.0074149254 0.053859953 -0.008127141 -0.038102843 -0.036013376 0.03000535
-0.00587631 0.024326783 -0.016064838 0.04926745 -0.02191348 -0.039236832 -0.02702849 -0.043698974
0.014948011 -0.033746235 -0.028404668 -0.021332303 0.044626307 0.0062993094 0.03693427 -0.05938627
-0.05468589 0.01461051 -0.027393693 -0.0007834976 0.03716923 0.021490527 -0.029879553 -0.000668588
-0.07604711 -0.00082022004 0.025252126 -0.069948144 0.014598707 -0.018099483 0.019881096 0.00033131713
0.034874056 0.0008312212 -0.048715286 0.05060135 -0.033647746 -0.050983254 0.019974172 0.05058377
-0.05333536 -0.0021841114 -0.03646883 0.04593983 -0.027029278 -0.015083777 0.024153536 0.008755207
0.053920023 -0.008324 0.0042263013 -0.052841526 0.012422629 -0.011386989 0.03905795 -0.05267266
-0.035472546 -0.000764071 0.038496885 0.03160223 -0.0421662 -0.011321503 -0.05862323 -0.051933773
-0.012691127 0.01387286 0.021331746 -0.030514868 0.057662886 0.021884698 -0.0035598623 -0.040512916
-0.01727618 -0.021649402 -0.04153627 -0.035302963 -0.02553162 -0.052539375 0.03836965 0.027313836

net.conv1.weight f4 [16, 2, 3, 3]
00000000: 2563 e0bd badf 4d3e fe66 16be 8f79 483e
00000010: 7640 03be 8278 3f3d 3896 413c c786 59be
00000020: 37e3 173e 6ef1 403e dfe5 9b3d ca26 8a3c
00000030: 580b 30be 7770 5fbe 53d5 f5bd 903c 50bc
00000040: 8eae 51be 4807 50bd 74c8 9d3d 357b d0bd
00000050: 7948 273e a6f4 b13d 8557 403e 213b 303e
00000060: b401 0abe e207 df3d b536 c3bd 3cca 22be
00000070: 0a10 02be ceba 2dbe 6543 da3d 2332 30be
00000080: 687e 90bd 34b9 06be 357e 503c 6923 45bd
00000090: ebfe 34be a25c f83d 60c5 bd3d 578a 323e
000000a0: a5b2 143d 5033 893e e008 93be 8e2e 50be
000000b0: f892 40bd 71f1 49be 7265 16be 4e62 133d
000000c0: 3922 203e 33b9 09be eff9 c13d 5e65 163e
000000d0: 8fdc bb3d 0149 f3bd bca8 7f3e a7f4 4dbe
000000e0: f33a 6bbe 9df9 6c3e 2c0d 7fbe f1ae 95be
000000f0: 3bee 863e 68ed 133d a21c 193e eafb 0c3d
00000100: 94b2 343b 179a 54bc fbf0 a73d 66e4 153e
00000110: e194 43be 31c0 f8bc 2201 2abe d5c4 ca3d
00000120: 901d 9bbd cbfe 223d dfa4 36be 1fdb e73c
00000130: a2aa e9bd f004 5abe 7071 84bc 36d3 1a3e
00000140: 9239 e13d 4c21 313e 3ae9 903d 0910 acbe
00000150: 6e17 c9bd bb86 183e d524 0fbe fadc 493d
00000160: 0d4a cdbd 725b 57be 350e 6b3e d99f 9d3e
00000170: bd8a 503e 7170 8e3d b3cb 00be 05bd 453e
00000180: 413f 37bd 0977 1cbe 0d09 1fbe edd2 0dbe
00000190: 2847 ea3d 17b1 8fbe a335 003d 67a0 08be
000001a0: df5e 03be 93a4 333c bca3 413c 6e57 97be
000001b0: 65f3 173d 171c 1ebe eb2c a53c 362f 5dbd
000001c0: 8d84 133e d4ae 0ebd 983b 1a3e 9da2 33be
000001d0: 2ae9 8dbd 0ccc e73d f846 d43d 3e43 ddbd
000001e0: 5083 b1bc 5985 3fbe 8cfb 81be be72 343e
000001f0: 9b6f f2bd 84a0 133e 84cd dd3d fb05 323e
00000200: 7dad 2c3e 2bd7 b9bd 6e22 c4be f101 9dbe
00000210: 7c6e 46be 92a9 8b3e a139 3dbc 0c67 ff3d
00000220: 8567 fe3d 6394 c63d 93a7 153e 681a 553e
00000230: ee28 523d 635c 113c a0de 393e 4ef7 37be
00000240: e12e d6bd b0ab d13c a114 d2bd bf86 a7be
00000250: e616 f7bc 39b9 aa3d 8a16 d0be b411 2c3e
00000260: 00e4 3ebe e243 493e 9072 56bd 18a4 013d
00000270: eb7f 803d 80d9 5bbc 0dcf b83e 6ba9 f43e
00000280: f9e5 243e 7458 b63e 135c 803e f077 c6bc
00000290: 478e 3c3e 6301 85bd dd8f 3f3d 5d2f 50be
000002a0: 03cb 92bd d27c cbbd aa3d 973e e510 9ebe
000002b0: 6645 4abd 0cbc edbd c068 343d 9b16 c13d
000002c0: 730a 48be 3628 efbd 73b5 9bbe 8e83 5a3d
000002d0: 6dc7 93be 6b28 eebd e3ca 81be 4406 6bbb
000002e0: bd7d b03e 703e 3a3e a22e 943d 8733 403e
000002f0: 75c2 e5bc dd8f 333d ec9f a9bd c2f9 34be
00000300: 3953 47be 7ac5 64bd 8763 7a3e 5028 b63d
00000310: b4f1 503e 0f51 cbbc 9ecf 813e 7e43 5bbe
00000320: c64f fbbd aa9e a93e 7729 c1bd c231 eabd
00000330: 1e8e 6b3e a6be 69be f4b7 463d 9713 e4bd
00000340: c3e6 ec3d a9c2 3bbe 05f3 d73d c6ad bb3d
00000350: eb2d ef3d 9d7c a53d 8d6c 03be 5c4b c83d
00000360: 9a79 8d3b c744 9ebc e8ce 2dbe c41f 253d
00000370: 6367 333c ecda c13d 5fb7 afbd b7b6 37be
00000380: 4192 be3d 4c44 c0bd 80c4 083e 0dc2 08be
00000390: 3874 36bd 176c f0bd 6958 4ebe 9591 093e
000003a0: eecd 5ebe 5fe6 57be 3cf6 953c 523a 06be
000003b0: 3c86 1e3e cd98 1bbc e835 68bd bc92 64be
000003c0: 1210 533e cf22 44be d6f2 42be 4d28 063e
000003d0: 5e83 ae3c 9a89 9a3d 3a3a 4c3d a848 213d
000003e0: f534 22be a21c d4bd f947 9ebe 444e 9d3c
000003f0: 8a0b 25bd 4dae 2d3d 4199 10be efcb 8d3e
-0.1095641 0.20104876 -0.14687726 0.19577621 -0.12817559 0.046745785 0.0118156 -0.2124282
0.1483277 0.18842098 0.07612204 0.0168642 -0.17191827 -0.21820246 -0.12003579 -0.012709752
-0.20476744 -0.050788194 0.07704249 -0.1017975 0.1633624 0.08689241 0.18783386 0.17210056
-0.13477212 0.108901754 -0.09531919 -0.15897459 -0.12701431 -0.16965792 0.10657386 -0.17206626
-0.0705536 -0.13156587 0.012725403 -0.048129473 -0.17675368 0.12127043 0.09266162 0.17435585
0.03630318 0.2679696 -0.2871771 -0.20330259 -0.04701516 -0.19721009 -0.14687136 0.035982423
0.15638055 -0.13449554 0.09471499 0.14687106 0.091729276 -0.11879159 0.24966711 -0.20112859
-0.22971706 0.23142095 -0.24907368 -0.29235032 0.2635363 0.03611508 0.14952329 0.03441993
0.0027572261 -0.012976191 0.0820026 0.14637908 -0.19099762 -0.030365082 -0.16601995 0.09900824
-0.07573998 0.03979377 -0.17836331 0.028302727 -0.11409499 -0.21290946 -0.016167372 0.15119633
0.10997309 0.17297858 0.070757344 -0.33605984 -0.09818922 0.14895146 -0.13978894 0.049283005
-0.1002389 -0.21030977 0.22954638 0.30786017 0.20365424 0.0695504 -0.12577705 0.19310386
-0.044738058 -0.15279783 -0.15530796 -0.13849993 0.11439353 -0.28064796 0.031301152 -0.13342439
-0.12829159 0.0109645305 0.0118188225 -0.2955889 0.037097353 -0.15440403 0.02016302 -0.054000102
0.14406033 -0.034834698 0.15061796 -0.17542501 -0.06929238 0.11318216 0.10365099 -0.10803841
-0.02166906 -0.18703212 -0.25387228 0.17621896 -0.11837693 0.144167 0.108302146 0.17385094
0.16863056 -0.09074243 -0.38307518 -0.30665544 -0.19378084 0.2727781 -0.011549384 0.124708265
0.124220885 0.09696271 0.14614706 0.20810854 0.051308565 0.008872124 0.18151331 -0.17965433
-0.1045816 0.025594562 -0.10257841 -0.3271999 -0.030162286 0.0833611 -0.40642196 0.16803628
-0.18641663 0.19654801 -0.05235535 0.031650633 0.062743984 -0.013418555 0.36095467 0.47785506
0.16103353 0.3561436 0.25070247 -0.024227113 0.1841365 -0.06494405 0.046768058 -0.20330568
-0.07167628 -0.09935917 0.29539233 -0.30872265 -0.04938259 -0.11608133 0.04404521 0.0942814
-0.19535236 -0.116775915 -0.30411872 0.053348117 -0.28863087 -0.11628803 -0.25350103 -0.003586189
0.3447093 0.1818788 0.07235457 0.18769656 -0.028046826 0.04383837 -0.08282456 -0.176734
-0.1946534 -0.05585239 0.24452029 0.08894408 0.20404702 -0.024818925 0.25353712 -0.21412465
-0.12271075 0.33128864 -0.09431737 -0.11435272 0.23003432 -0.22826633 0.048515275 -0.11136549
0.11567452 -0.18335976 0.10544399 0.09164004 0.1167868 0.08080409 -0.12834378 0.09779999
0.0043174746 -0.019319905 -0.1697346 0.040313497 0.010949942 0.09465584 -0.08579897 -0.17940794
0.093052395 -0.093880266 0.13356209 -0.13355274 -0.04454443 -0.117393665 -0.20150913 0.13434441
-0.21758243 -0.21083973 0.01830589 -0.13108185 0.15480894 -0.00949688 -0.056692034 -0.223216
0.20611599 -0.19153903 -0.19037947 0.13101311 0.021302875 0.07545777 0.049860217 0.03937593
-0.15840514 -0.10357024 -0.30914286 0.019202359 -0.040294208 0.042402554 -0.14120962 0.2769465

net.conv1.bias f4 [16]
00000000: 008a 96be ddc1 01bf 6761 0cbe 05f3 c8be
00000010: e24c 8e3e 03d2 b5be dc31 1bbe 69ea 2bbe
00000020: 695e c03d 1d71 9fbe 41b4 70be ffb2 42bd
00000030: 9324 b3bd 8476 d6bc 0bb7 16be 297b b23d
-0.2940216 -0.50686437 -0.13709031 -0.3924791 0.27793032 -0.3551179 -0.15155739 -0.16788639
0.09393007 -0.31140986 -0.23506261 -0.047533985 -0.0874721 -0.02617956 -0.14718263 0.08714897

net.conv2.weight f4 [32, 16, 3, 3]
00000000: 2c38 c1bb 4931 593d 2383 a5bc 3dd7 0b3e
00000010: 7df8 ff3d 681d 85bd 6755 aa3d 0ee9 88bd
00000020: a248 003c 36ed 583c 6ac5 553c 9bad 403d
00000030: 2ecf 7fbe a6a7 a4bc 0ecd be3c ff35 2fbd
00000040: c492 b23d 778e 5f3c 63a2 7d3e d240 c93d
00000050: 99a7 1fbd 861e ac3e 8cba d03d b216 e5bd
00000060: 1f0f 0e3f d1e3 303e 06ce e83d f84e aebd
00000070: 349d 0ebe 6fea 16be adc2 883e 91d0 b23e
00000080: c4bd b63d fd55 573d f19f e7bd 77a9 0dbe
00000090: e3f7 553c 19c8 a83c f71b e53d 08eb a4bd
000000a0: 0240 fa3b 7518 633d ce15 35bb c639 363d
000000b0: cdd5 753e ebb3 e7bc 4119 c63d 08a0 d1bd
000000c0: f9b6 f9bd 2892 353d 6b05 54bc 9c0d 27be
000000d0: fce2 cfbd a6c4 ff3d e077 c5bc 9490 b03d
000000e0: 7357 47bc aaef b33b 4d37 b6bd 57e8 ab3c
000000f0: b758 26bc 691c 583d 1cbb a23d 1ba7 15be
00000100: 13ed 17be 27ae 33bd c80f ae3e 1c0b a43e
00000110: 86ad 66be 24d4 79be 4b5b 4abe 6ae9 443e
00000120: 92ab f3bd 6688 afbc 545f a4bb 19d3 92bd
00000130: b03b c73e 2140 e8bd 4829 5abe 2410 7f3d
00000140: c4b3 c9be e3bf f6bd 16f8 35be 68b7 9fbe
00000150: fc50 0dbd 5f65 e5bc 032f b4bd 35a2 8fbe
00000160: 57c8 09bb 0119 4d3c 2a4a 36be 3789 bf3c
00000170: 9143 743e 2166 b5be bdf4 67be b2b3 0a3e
00000180: 6030 073e f6b1 483e 30b9 843d cc3d 723d
00000190: 2f1d f03d ecbc 02bd b80a a53c 6071 eabd
000001a0: f222 dabd 0160 3ebd 7bc5 13bc 0979 9a3d
000001b0: c08d f0bc 48c1 843d 9f78 e13c 1d3d 883c
000001c0: c783 8fbd 89fe 933c 46b0 85bd fcbe a53d
000001d0: 88ba 9dbd 08ec 3fbe e3ef 03be 0bf6 0fbe
000001e0: 3f46 75be f97d 60be d26f a5be 7d56 11be
000001f0: ceb4 6bbe dbb9 32be df68 6cbd 0915 a9bd
00000200: 2d40 4b3d f848 883e 8074 3a3e 11a4 96be
00000210: f0a0 653e f907 863e 261c 83bb 5b79 dbbc
00000220: c3c0 25be 0747 3dbe 55d0 87bd f20a 5cbe
00000230: 1178 12bc cc17 8abc 98dc a4be 8615 283d
00000240: 9fb2 17be 5d8e cd3e 8813 d2be c806 803e
00000250: c0f9 5b3e cd3c 20be 91c8 48bd 56da 70be
00000260: 9b0e b93e 12d7 98bd 1ec9 2a3d cb91 1c3e
00000270: fbec 4abd 7e55 8e3d b382 083c ae9d ec3d
00000280: e10b 4f3e b840 8c3d c919 e13e 71c4 0b3f
00000290: 900d 95bd e5f0 aa3e ce5d b23e 3fe3 e8bd
000002a0: 6494 223f 7985 463e 54bb 8abb 5889 a6bd
000002b0: 0a08 cbbd 6947 32bd 448b 4b3d e185 97be
000002c0: 7f2d c6bd f098 99bd 04d5 38be 401c 6ebe
000002d0: 4fe2 cdbc 31ce 59be e748 883d 53fb bbbd
000002e0: 59ef 3dbe a038 c8bd 4ea6 c83d 655e 9f3e
000002f0: 6d2e 90bd a237 253e ce91 9a3d 7a7f 88bd
00000300: 328d 5cbe cfc6 483e 0c27 3f3e a8e7 7dbd
00000310: 96a5 5fbd bf59 853d 2e16 a33e 6fc5 d23c
00000320: 8e48 febd f49d 5ebe 3550 c7be 898e d2bb
00000330: 8f99 823e c36f 563e 9008 c23d c2d6 993d
00000340: 7aa1 35be efb9 d5bd 2cba 8cbc c15f 5db9
00000350: d22a c6bd a442 0cbe 0f80 10bd 4993 343d
00000360: 5ade b2bd e756 0d3d d91a 073e 1e47 b7bd
00000370: 3a4f d13e 56eb e83d d9f3 52bf c7a7 1abf
00000380: 51ff 1cbf c8e2 11bf 52e3 053e f721 96bd
00000390: 6860 fd3e 6b4f 533e 11a8 96bd 03be 583d
000003a0: 0e7e 5cbe 73e9 0dbf 23dc cc3d ece4 61bd
000003b0: f834 e13d e7b7 2fbe 3079 30be 399b fe3d
000003c0: 9566 163e 2985 b7bc b164 0cbd ce1e 20bd
000003d0: 8f5b be3d 6759 a23d 874c c33b 95ad 4ebe
000003e0: 64a7 49be 1862 653d 0e02 8e3e 635f 8a3d
000003f0: 4257 65bd ec6b 6c3d 6c5d bbbc 002c 4abc
-0.005896589 0.053025518 -0.020204132 0.13656326 0.12498567 -0.064997494 0.083170705 -0.06685077
0.007829817 0.013240149 0.013047555 0.047040563 -0.24981377 -0.020099472 0.023291137 -0.042776104
0.087193996 0.013644806 0.24768977 0.098268166 -0.038978193 0.33617038 0.10191831 -0.111859694
0.5549182 0.17274405 0.11367421 -0.08511156 -0.13927156 -0.14737867 0.26711026 0.3492475
0.08922914 0.05257224 -0.11309803 -0.13834177 0.013059589 0.020603226 0.111869745 -0.08052641
0.007637025 0.055443246 -0.0027631405 0.04448869 0.2400734 -0.028284034 0.096727856 -0.10235602
-0.121931024 0.04432884 -0.012940745 -0.16313785 -0.10150716 0.124886796 -0.024105012 0.08621326
-0.012166846 0.0054912167 -0.088972665 0.020984812 -0.010152987 0.05276147 0.079458445 -0.14614527
-0.1483653 -0.043867256 0.33996415 0.32039726 -0.22527131 -0.24397331 -0.19761388 0.19229665
-0.11897959 -0.021427345 -0.005016247 -0.0716917 0.38912725 -0.113403566 -0.2130481 0.062271252
-0.39394963 -0.12048318 -0.17770419 -0.31194615 -0.03450106 -0.028002439 -0.08798029 -0.28053442
-0.0021023953 0.012518168 -0.17801729 0.023380859 0.238539 -0.3542948 -0.22651954 0.13545111
0.13202047 0.19599137 0.06480634 0.059140965 0.11724316 -0.03191845 0.020146713 -0.11447406
-0.106511965 -0.046478275 -0.009019251 0.07542617 -0.029364467 0.06482178 0.027523337 0.016630704
-0.070075564 0.018065708 -0.06527762 0.08093068 -0.07701594 -0.18742383 -0.12884478 -0.14058702
-0.23952578 -0.21923055 -0.32311875 -0.14193149 -0.2301819 -0.1745371 -0.0577172 -0.08255965
0.04962175 0.2661817 0.18208504 -0.29422048 0.22424674 0.26177958 -0.0040011583 -0.026791265
-0.16186814 -0.18484126 -0.06631533 -0.2148855 -0.008939759 -0.01685705 -0.3219955 0.04103615
-0.14814232 0.40147677 -0.41030526 0.25005174 0.21481991 -0.15648194 -0.0490194 -0.23520789
0.36143956 -0.074628964 0.041695707 0.1528999 -0.04954241 0.069499 0.008331942 0.115535125
0.20219375 0.068482816 0.43964985 0.5459662 -0.072779775 0.33386913 0.34837192 -0.11371469
0.63507676 0.19386853 -0.004233757 -0.08131665 -0.09913643 -0.043525133 0.04969336 -0.2959433
-0.096766464 -0.07499874 -0.18050009 -0.23252964 -0.025132326 -0.21270062 0.0665453 -0.09178796
-0.18548335 -0.09776425 0.09797345 0.31126705 -0.07040105 0.16134503 0.07547341 -0.06664939
-0.21538237 0.1960709 0.18667239 -0.061988503 -0.054601274 0.06511258 0.3185286 0.02572891
-0.124161825 -0.21739942 -0.3892838 -0.006425683 0.2550778 0.20941071 0.094742894 0.07511665
-0.1773738 -0.10435855 -0.017178617 -0.00021111874 -0.09676136 -0.13697296 -0.035278376 0.044085775
-0.087338164 0.034506705 0.13193835 -0.089491114 0.40880758 0.11373012 -0.8240333 -0.6041226
-0.6132708 -0.56986666 0.13074997 -0.07330697 0.49487615 0.20635764 -0.07356275 0.052915584
-0.21532461 -0.5543434 0.10002925 -0.055149958 0.10996431 -0.17159997 -0.1723373 0.1243195
0.1468757 -0.022402363 -0.034275714 -0.039091878 0.09294807 0.079272084 0.0059600505 -0.20183404
-0.1969276 0.056001753 0.27735943 0.06756475 -0.05599142 0.05772011 -0.022871695 -0.012339592

net.conv2.bias f4 [32]
00000000: 1773 073e dac7 793d 3e91 8bbd d3d5 863b
00000010: 82a0 043e d92e 02be a32b a8bd 1a82 6dbe
00000020: 88ac d5bd c7d1 1abe 5a2f a13c 64e0 e9bd
00000030: 514a 6bbd e1eb ebbd f7e5 d43e 8dc3 85bd
00000040: 765a 6abd a2da 9cbb d206 90bd 4871 febc
00000050: 5323 303e 351b 9abd f3b3 b7bd 9d48 98bb
00000060: ff02 053e 0bc8 1dbd 9168 a0bd 7e88 3dbd
00000070: b640 12bd 5c07 35be 154d b23c 5903 9cbd
0.13227497 0.06098161 -0.06814812 0.0041148453 0.12951854 -0.12713183 -0.08211448 -0.23194161
-0.10433298 -0.15119086 0.0196759 -0.11419752 -0.05744392 -0.115196 0.415817 -0.06531439
-0.057215177 -0.0047868052 -0.07032551 -0.031059876 0.17200975 -0.075247206 -0.089698695 -0.004647328
0.12989424 -0.038520854 -0.078324445 -0.046272747 -0.035706244 -0.17678589 0.021765271 -0.07617826
