models/TACEnet_vessel_enhancement_deformations_30052024.pth (torch, 316058 bytes, 13 tensors)

lrm.conv1.weight f4 [32, 1, 3, 3, 3]
000000 db ef 17 bc 23 6a c7 be 15 15 39 be 73 c2 72 3d
       -0.009273495 -0.38948163 -0.18074448 0.059267472
000010 f7 cb 9b be 60 78 af be 24 5a 13 be a5 7c d2 be
       -0.3042905 -0.34271526 -0.14389855 -0.4111072
000020 a3 82 4e be f9 2b 62 bd 61 de d1 be 85 68 d9 3d
       -0.20167021 -0.055217717 -0.40989974 0.10615639
000030 6c b3 96 3e 6b 8c 2c 3c 4d f1 ca be 8e 3d ce be
       0.29433763 0.010531525 -0.39637223 -0.40281337
000040 63 d7 86 bd 30 05 50 be a8 7d 73 bd 6e 52 a8 be
       -0.065840505 -0.20314479 -0.059446007 -0.3287539
000050 07 07 5b be 8f b3 2e 3d 3e d3 92 be 25 37 e8 bc
       -0.213894 0.04265171 -0.2867679 -0.028346607
000060 8d 2e b8 be 4f f9 e0 be 37 0b c5 3d 3d db b6 be
       -0.35973015 -0.43940207 0.0962128 -0.3571414
000070 82 c5 75 bf 63 28 f4 3d 8d 4a 01 3e e7 e3 ae 3e
       -0.960045 0.11921766 0.12626095 0.3415825
000080 6e e8 21 be 8e 45 0e 3e 45 76 a3 bd de ba 35 3e
       -0.15811321 0.1389372 -0.079815425 0.17747065
000090 aa 3c af 3e 42 bb 23 bf f5 ef 9f 3e 97 ac 13 be
       0.3422597 -0.6395761 0.3123776 -0.14421307
0000a0 f6 2a ea 3e 78 25 b8 3d 42 01 24 3c f5 39 86 be
       0.45735902 0.089915216 0.0100100655 -0.26216093
0000b0 e3 9b e4 bd bd c4 56 3d 0e a2 be be b5 57 d5 be
       -0.111625455 0.052433718 -0.37233013 -0.41668478
0000c0 d6 32 f6 3c 2c 5b b2 3e f9 a7 02 3e 7d 5e 96 be
       0.030053537 0.34835184 0.12759389 -0.29368964
0000d0 5d 57 52 3e df ae d7 be 4a 96 90 be 00 d6 0e be
       0.20541139 -0.42125604 -0.2823966 -0.13948822
0000e0 c6 cd 24 3c 41 c5 5b be 56 4b 37 be ef 7e a4 bc
       0.010058826 -0.21461965 -0.17899832 -0.020080058
0000f0 13 57 20 be 98 66 35 be 12 c1 98 be 36 e1 31 be
       -0.15658216 -0.17714918 -0.298348 -0.17371067
000100 00 dd 37 3e f1 48 5e be ef 41 08 3e 45 b0 cf 3d
       0.17955399 -0.21707512 0.13306402 0.101410426
000110 80 a9 0e bd 1c 0d 3f be e5 e0 40 be 02 c6 78 be
       -0.034829617 -0.18657345 -0.1883579 -0.24294284
000120 5c 6e 85 be 0b 9f 88 3d 38 4e 31 3e 0d 9f d1 bb
       -0.2606076 0.0667096 0.17314994 -0.006397134
000130 a8 98 82 3d 24 e5 05 3e e3 94 28 bd fd 20 2a be
       0.06376773 0.13075691 -0.041157614 -0.16614147
000140 ab 05 18 3e 65 a0 79 be 53 56 45 3d c5 2b c5 bb
       0.14845912 -0.24377592 0.04817803 -0.0060171806
000150 5d c8 c0 be 73 b5 92 bd df 3b c6 bc f3 01 06 bd
       -0.37652865 -0.07163515 -0.02419847 -0.032716703
000160 12 ae 04 ba 9f 5f 94 bd e5 2b a6 be 6e 10 f8 3d
       -0.0005061339 -0.07244801 -0.32455364 0.12112509
000170 8b 98 3c 3e 90 cb 03 bf c1 f1 80 be 3b f6 45 be
       0.18417566 -0.51482487 -0.25184444 -0.1933221
000180 65 0e 1c be 2f 6b c8 be 40 86 59 bf 92 fd d9 3e
       -0.15239866 -0.39144275 -0.84970474 0.4257627
000190 33 8d ff 3e ba f4 e6 3e 39 65 2a 3e 35 78 c3 3d
       0.49912414 0.45108587 0.16640176 0.09544412
0001a0 b0 f8 e3 3e 63 79 b5 be c1 a7 ed be 13 af 2d bf
       0.4452567 -0.35444173 -0.4641705 -0.6784527
0001b0 fb e3 16 bd 74 0b ca be 27 f5 c5 bc 86 9e 47 bc
       -0.036838513 -0.39461863 -0.02416475 -0.012183791
0001c0 01 f8 0c be 71 66 56 bf 56 49 62 bf d9 70 6c be
       -0.13766481 -0.83750063 -0.8839315 -0.23089923
0001d0 e2 0a d7 3d 83 5d 17 bd 12 97 de be e0 44 78 bd
       0.105001226 -0.036954414 -0.43474633 -0.06061256
0001e0 b3 b9 af be 69 01 fe be e6 67 8d be 4b a1 20 bf
       -0.34321365 -0.4961045 -0.2761833 -0.62746114
0001f0 6b 7d 88 bd 62 03 08 be 48 9c a6 3c c3 43 7a 3e
       -0.066645466 -0.1328254 0.020338193 0.24439912
000200 61 24 55 3f 86 2d 51 bd 9a c9 44 3e ac 47 9c 3e
       0.83258635 -0.051068805 0.1921753 0.3052343
000210 7a 2d 4a 3e 92 a0 87 3e 56 bb 95 bd d9 dd ae bd
       0.1974391 0.26489693 -0.07311122 -0.08538408
000220 b1 95 d4 3e 64 5b d2 be 5b 85 75 be 2c 71 8c 3e
       0.41520455 -0.4108535 -0.23976652 0.27430093
000230 89 9e 06 bf f8 b7 8b be c1 3e 15 3e ff f7 16 bf
       -0.52585655 -0.27288795 0.1457472 -0.5897216
000240 a3 5b 3e bd 4c c5 d9 3d e5 59 39 bc 6d 34 46 bf
       -0.04647411 0.106333345 -0.011312936 -0.77423745
000250 55 b0 9c 3e 60 c9 fb be e5 ff 4b be f4 90 ec 3e
       0.3060328 -0.49177074 -0.19921835 0.4620434
000260 b2 c6 c8 be 21 d1 e6 bd 1f 59 db 3e 79 5e 67 3d
       -0.39214092 -0.11270357 0.42841431 0.05648658
000270 38 2a 60 be c7 1a 0b 3e 49 2b d4 3e e5 28 b3 3c
       -0.21891105 0.13584433 0.41439274 0.021870086
000280 e3 cc 0b bd 1a 7e 04 3f 7c b0 d5 be 88 38 08 3f
       -0.034130942 0.51754916 -0.4173621 0.5321126
000290 ac 21 10 3e b1 00 08 bd a8 80 d7 bd fb e9 75 3f
       0.14075345 -0.033203784 -0.10522586 0.9606015
0002a0 d8 d5 5d 3e c1 c5 ae be 68 f4 65 be d9 cc c1 bd
       0.21663606 -0.3413525 -0.22456515 -0.094629
0002b0 cd 35 69 3e c0 d1 c1 3e b8 50 fa 3c 5e 6c 81 3d
       0.2277443 0.3785534 0.030556068 0.063194975
0002c0 e4 70 9c be 9b b9 85 3e 14 8a f0 3e b1 fd 9f 3c
       -0.3055488 0.26118168 0.46980345 0.01953015
0002d0 32 28 eb bd 02 bc 28 bc 73 7f 34 3f af 79 52 3e
       -0.11482276 -0.010298731 0.7050697 0.20554231
0002e0 5b ea d9 bd 62 df 19 bf 07 5b c3 3e c1 84 14 3e
       -0.10640403 -0.6010648 0.38155386 0.14503767
0002f0 80 4a 05 bf 62 2e 1b be 4a e5 05 be fe bc 0b bf
       -0.520668 -0.15154412 -0.13075748 -0.54585254
000300 6a e2 60 be 0a 9b 81 be 0f c3 0a bf ab cc 49 3e
       -0.2196137 -0.25313598 -0.54203886 0.19706981
000310 22 61 6c be 91 71 01 bf 70 95 1f 3e d3 84 be 3d
       -0.23083928 -0.50563914 0.1558435 0.09302678
000320 d7 c0 4d be 64 9e 2f 3c 6b c8 d5 bd eb d8 cd be
       -0.20093094 0.010718916 -0.10438617 -0.40204558
000330 bd 85 d6 3e 07 a8 e9 bd f2 23 9f 3e 0b d8 24 3e
       0.4189891 -0.11409002 0.31082112 0.16098039
000340 c3 f1 f3 3d 15 a7 f1 be 0a 7f e6 3d 8e d2 37 bd
       0.11911347 -0.47197786 0.112546995 -0.044878535
000350 ab a5 21 bc 89 e2 9d 3e 89 e2 fb bc 78 89 f0 be
       -0.0098661585 0.30836895 -0.030747669 -0.4697988
000360 f9 34 16 be be 88 cc be af 9c 26 bf f8 42 55 3e
       -0.14668645 -0.39948076 -0.6508283 0.20826328
000370 ce e5 ec be f6 fd 10 bf 7f 4d aa 3e 2b 74 96 be
       -0.46269077 -0.56637514 0.3326225 -0.29385504
000380 48 b6 22 bf 10 cb 28 bc 4e e4 23 be 62 18 f4 3d
       -0.6355939 -0.01030232 -0.1600506 0.11918713
000390 54 a3 ad 3e 36 a9 a3 be 2d b2 6d be 91 d2 fe 3c
       0.33913672 -0.31965035 -0.232125 0.031106265
0003a0 aa c0 e4 be 5b c1 38 be 63 d6 70 bd fe cb b2 3e
       -0.4467824 -0.1804251 -0.058798205 0.3492126
0003b0 f5 37 d3 3e 34 a2 90 bc 16 5f 7c bd 11 40 14 3f
       0.4125363 -0.01765547 -0.06161412 0.5791026
0003c0 37 a6 73 bf b9 d5 61 be d9 d0 fb 3e 3f 98 40 be
       -0.951755 -0.22054185 0.49182776 -0.18808077
0003d0 64 ba b1 be 79 19 4f be 4f fc 37 be f7 89 07 bf
       -0.34712517 -0.20224561 -0.17967342 -0.5294489
0003e0 90 47 3f be b5 ae 49 be 9e e7 f8 be d0 f0 2c be
       -0.18679643 -0.19695552 -0.4861421 -0.16888738
0003f0 90 eb 13 be 21 8e 64 bc 5e 3e c7 3b 6a a8 8f be
       -0.14445329 -0.013949902 0.006080433 -0.28058177

lrm.conv1.bias f4 [32]
000000 fa 99 f2 3c d2 ba cd bd 94 4d e2 3d ff 34 34 bc
       0.029614437 -0.10045399 0.11049953 -0.010998963
000010 47 95 22 bb cd 08 b6 bc 97 44 8b bc e3 73 8d bc
       -0.0024808215 -0.022220993 -0.01700048 -0.017267173
000020 48 69 95 bb 73 2a 24 3e 6d a7 82 ba ad c3 49 bc
       -0.0045596696 0.16031818 -0.000996811 -0.012314719
000030 6c 71 55 ba d8 da d5 ba d1 9f 48 bc 9b 52 39 bc
       -0.00081422064 -0.0016315831 -0.012245134 -0.011311199
000040 99 8f f6 bc 2a 46 11 bc 1f af e4 3d 81 85 ea 3d
       -0.03009777 -0.008866826 0.11166214 0.11451245
000050 2a 60 6b 3d 92 47 61 bc cc 67 92 3d 1d bb a9 bc
       0.057464756 -0.013749974 0.07148704 -0.020719105
000060 94 4f 9b 3d 2a 74 8c 3a 10 35 69 bd 31 6f b5 3a
       0.07583538 0.0010715772 -0.05693537 0.0013842342
000070 6f b6 01 bc 54 cc 3c bd e7 38 05 b9 7e 38 81 3a
       -0.007917031 -0.0460933 -0.00012705066 0.0009858755

lrm.conv2.weight f4 [64, 32, 3, 3, 3]
000000 21 f4 b1 bd 7d 9e c4 3b 64 ed 09 3d 77 e8 3f bd
       -0.08689142 0.0060003386 0.03367366 -0.046852555
000010 0c e1 aa 3d 74 ad 1e 3b 4d 66 cb bc 6e e5 17 bc
       0.083437055 0.0024212273 -0.024829054 -0.009271009
000020 af e8 b4 3c 5f 12 d3 bd 00 d8 22 bd 8d 6f 00 bd
       0.022083608 -0.103062384 -0.039756775 -0.031356383
000030 41 66 3b bd 3e 2f 49 bd 86 67 b1 bd 97 3f 70 bd
       -0.045751814 -0.04911732 -0.08662324 -0.058654394
000040 e7 80 97 bb 76 09 44 3d 10 08 1d bd ee b0 d9 bc
       -0.0046235207 0.047860585 -0.038337767 -0.026573624
000050 a6 04 93 bb b9 84 a5 bc 2e 6f 45 bc 46 4b fb bb
       -0.004486638 -0.020204889 -0.012050433 -0.0076688854
000060 7b d3 44 bc d9 84 e3 3b c4 03 df 3d 43 46 14 3f
       -0.0120133115 0.006943327 0.1088939 0.5791971
000070 f9 df 23 3f f6 85 05 3f 68 89 05 3f e2 b8 ce 3e
       0.6401363 0.52157533 0.5216279 0.4037543
000080 8f ee 15 3f 7e ff 06 3f 99 f3 e6 3e 50 95 4a 3e
       0.58567137 0.527336 0.45107725 0.1978352
000090 2a 1e 13 3f 20 4c 1b 3f b8 90 7f 3e 36 9b 2d 3c
       0.574679 0.6066303 0.2495755 0.010596087
0000a0 a0 c7 cd 3d 02 b4 58 3e 58 06 ba 3e 96 b2 3b ba
       0.10047841 0.21162418 0.36332965 -0.0007160095
0000b0 69 a5 1a be e8 1d 9b 3e b2 f4 10 3f f2 61 78 3c
       -0.15102161 0.30296254 0.56623375 0.015160071
0000c0 36 50 23 be 97 ff e2 be 0d 01 12 bf 29 28 a2 be
       -0.15948567 -0.44335625 -0.57032853 -0.31671265
0000d0 60 ff 0a bf 67 d1 32 bf f3 99 b9 3d ec 71 25 3e
       -0.5429592 -0.6985077 0.090625666 0.16156739
0000e0 b6 bb 37 3d 49 d1 c2 3d d9 d2 d0 3d 7e d6 3a bb
       0.04485675 0.09512574 0.10196466 -0.0028509195
0000f0 08 0a cb 3c 9a 6d 12 3d bd e6 80 3d 52 58 9e bc
       0.024785057 0.035749055 0.0629401 -0.019329224
000100 ea cf 1a bd 92 37 d2 bd 82 b2 03 bc af fa 44 bc
       -0.03779594 -0.102645054 -0.008038165 -0.012022658
000110 74 54 cb bd 03 57 bc 3c 43 de d0 3c a5 e7 85 bd
       -0.099282175 0.02299071 0.025496608 -0.06538323
000120 da 6e 25 bd 5e 4e b1 bd a2 4f c8 bc 57 c2 7d bd
       -0.04038892 -0.086575255 -0.024452034 -0.061952915
000130 12 aa a1 bd 26 b1 45 bd 4a 36 c4 3c 0d bb a3 bc
       -0.078937665 -0.048264645 0.023951668 -0.019986654
000140 38 97 12 bd b6 f3 89 3e 6a f7 ab 3e 8c ce 1c 3e
       -0.035788745 0.2694375 0.335872 0.15313166
000150 a8 e8 73 3e 27 40 97 3b 4d 63 81 3d c9 18 9a 3e
       0.2381922 0.004615802 0.06317768 0.30097035
000160 84 1b d6 bd 32 57 ce bd 9f 9c 78 3e 79 dd b9 3d
       -0.10454467 -0.10075225 0.24278496 0.09075446
000170 1c a6 17 3e d5 8c de bd 30 6a da be 4a 55 86 be
       0.1480946 -0.10866705 -0.4265914 -0.26236945
000180 ea a4 f4 bd 86 c0 11 bf 15 6e ac be bb d6 d8 3c
       -0.11945517 -0.5693439 -0.33677736 0.026469579
000190 1b 7e 9e be a1 4f d8 3d 0d 3e e5 be 0f 82 89 bf
       -0.30955586 0.10562063 -0.44773903 -1.0742816
0001a0 3a 49 a0 be f6 65 73 bd 8e c8 48 bf 9f 1e eb be
       -0.31305867 -0.05942341 -0.7843102 -0.459218
0001b0 6b 25 21 3e cd 7c 5d 3d 52 c3 fc bc 13 1c 0e 3e
       0.1573693 0.054074097 -0.030854855 0.13877897
0001c0 ba 64 b7 3c 2b 94 af 3c ee 0c 5f bc c2 7c 0d 3c
       0.022386897 0.021432957 -0.0136139225 0.008635702
0001d0 74 6b c0 3d 24 c2 0e be 93 18 fc bd e6 b9 3a be
       0.09395495 -0.13941246 -0.12309375 -0.18234977
0001e0 c7 51 26 be 4b 16 09 3b 49 b4 d7 bd 6b 8b 9d ba
       -0.16242133 0.0020917829 -0.105324335 -0.0012019699
0001f0 e6 35 75 3d 0e e0 df bd 3f f6 b2 be 25 81 53 bb
       0.059865855 -0.10931407 -0.34953496 -0.003227302
000200 fd 80 87 bd 45 de 5a be 09 a9 86 3d f8 56 60 bd
       -0.066163994 -0.21373852 0.0657521 -0.05477044
000210 be 01 8b 3d 16 dc e1 bd 00 b9 35 be 2e c8 89 3e
       0.06787442 -0.11028306 -0.17746353 0.26910537
000220 d0 f3 62 bd f6 49 d6 bb 1b 27 c8 3d 93 3b 0c be
       -0.0554083 -0.0065395785 0.09773084 -0.13694601
000230 54 f9 0a 3e fe 5b bf 3d f0 91 b3 bd ef 55 2e 3e
       0.13571674 0.09343718 -0.0876807 0.17024969
000240 1a 5d 8c 3d 04 ec 88 bd bb 5f e9 bd 0f 3e 4e bd
       0.06853695 -0.066856414 -0.11395212 -0.050352152
000250 fa 9c 0a be cc ac f5 bc 52 0b 32 bd d8 e1 c3 bd
       -0.13536444 -0.029989623 -0.043467827 -0.09564561
000260 98 fc 5b 3c a0 4a a6 bc a9 02 1e be f0 fc 9d b9
       0.013426922 -0.020299256 -0.15430702 -0.00030133827
000270 bd 40 2c be 78 70 3a be 55 65 61 be 8b b3 7c be
       -0.1682157 -0.18206966 -0.22011311 -0.24677865
000280 7d 1d a5 bd 5d 51 ca be 8d 98 d9 3e 2f 30 5d 3e
       -0.08062265 -0.395152 0.424992 0.21600412
000290 04 df 2a 3e 25 8a 64 3e 58 74 5b bc fb 52 d2 3c
       0.16686636 0.22318323 -0.013394438 0.025674334
0002a0 3f 10 55 3e b3 77 53 be 7a 70 b8 bd c5 9b 77 3e
       0.20806979 -0.2065113 -0.09005828 0.24180515
0002b0 d2 b1 12 3e 32 71 a6 3d 37 13 0d 3d 7c 36 f4 bb
       0.14325646 0.08127059 0.034442153 -0.007452784
0002c0 89 18 e1 bb 7d 9e 0d 3d 2c b5 0a be 97 48 9a 3c
       -0.00686938 0.034574974 -0.13545674 0.018833442
0002d0 f7 f7 9c 3d 95 9e 58 3d a5 3f 03 bd 23 3a 99 be
       0.07664483 0.05288561 -0.032043118 -0.29927167
0002e0 d2 69 00 be 7f fe ca bd 68 9f 48 be 5e 49 d4 be
       -0.12540367 -0.099118225 -0.19592059 -0.41462225
0002f0 a2 a7 77 bd cf 20 32 be 81 06 7d 3d 0d f7 c6 3d
       -0.0604626 -0.17395328 0.06177378 0.0971509
000300 78 47 05 3d d1 0a b2 bc b0 ad 9b 3d 55 51 e3 3d
       0.03253886 -0.021733673 0.07601488 0.11099497
000310 ed 2b dc 39 4c a7 7a 3d e9 e9 11 bd a2 08 6c bd
       0.00041994397 0.061194703 -0.035623465 -0.05762542
000320 43 fb 49 3d 15 3f 8b bd 0a e5 17 be 8e 77 cd 3c
       0.049311887 -0.06799141 -0.14833465 0.025081422
000330 31 20 36 bd bb 21 cb bd ba ed 93 3d 96 49 0e 3e
       -0.044464294 -0.09918543 0.07223077 0.13895258
000340 5c 72 15 be be be d5 bb e6 e8 42 bc 70 f2 35 be
       -0.14594406 -0.0065229824 -0.011896348 -0.17768264
000350 b4 35 24 3b cb 57 87 bd 32 eb b1 bd dc 4a 83 3d
       0.0025056424 -0.06608542 -0.08687438 0.06410763
000360 96 52 88 3e f0 25 64 3c 57 1a 78 bd 9c b0 91 3e
       0.26625508 0.013925061 -0.060571995 0.28455055
000370 7f b9 d6 3c fe 38 03 be bb af 0d 3e f7 93 41 3e
       0.026211498 -0.1281471 0.13836567 0.189041
000380 2e ff 8a bd 29 a1 6a 3c b8 2e 54 3d cc 52 8a 3d
       -0.06786953 0.01432065 0.051802367 0.067540735
000390 7c bc fc 3d 68 1a db bd 1b 3e ed bd 95 09 8a 3e
       0.12340638 -0.10698396 -0.11584111 0.26960436
0003a0 55 94 4c 3d 86 ac a2 be ef 2b 8f be 19 19 9d bd
       0.049946148 -0.3177225 -0.27963206 -0.076708026
0003b0 f6 61 05 3e 3a 2f b3 be 2c e3 c6 be 1d d2 2f be
       0.1302565 -0.34996969 -0.38845193 -0.17169996
0003c0 5a 9d f7 3d 42 b4 29 be 9d ee 3f be a4 e6 8f 3d
       0.12090559 -0.16572669 -0.18743367 0.07026413
0003d0 02 a3 cd 3d db 05 86 bd 67 fb d5 3d df b8 ad 3d
       0.10040857 -0.065440856 0.10448342 0.08482527
0003e0 7d df 9d bd 4b 2c ba 3d c2 61 05 3e 24 af 11 3d
       -0.07708643 0.090904795 0.13025573 0.035567418
0003f0 84 34 f5 bc ab 97 7e bd c4 22 0b be c9 d8 84 bd
       -0.029932268 -0.06215636 -0.13587481 -0.06486661

lrm.conv2.bias f4 [64]
000000 6d 14 06 3d 67 c4 05 bc 7a 83 06 bd dd bb 30 bd
       0.032734323 -0.008164502 -0.03284023 -0.04314791
000010 7e eb b0 bd 83 a1 b9 3d 25 c7 0d bd 25 46 51 bd
       -0.086386666 0.09064009 -0.034613747 -0.051092286
000020 5c f2 43 bd e0 3e 6a bd bc d6 37 bd 39 80 10 bd
       -0.047838554 -0.05718887 -0.04488252 -0.035278533
000030 18 26 54 bd a3 2f 38 bd be 0c 8c bd 44 45 05 bd
       -0.05179414 -0.044967305 -0.06838368 -0.03253676
000040 91 fd ef bb b8 3a db bc b4 3e 42 3c db 53 a1 3c
       -0.0073239286 -0.026761398 0.01185577 0.019693306
000050 4d c3 c9 bc 1b 9f b6 3d d5 f5 bf 3d 3a 74 92 3c
       -0.02462926 0.08917066 0.093730606 0.017877687
000060 de 9f 4e bd 08 a1 8f bc 40 fc 59 3d c5 6c 4c 3c
       -0.05044543 -0.01753284 0.05321908 0.012477105
000070 dd d6 d2 bc b0 21 65 bd 66 39 1d bd 71 ff 38 bd
       -0.02573722 -0.05594033 -0.038384818 -0.045165483
000080 39 76 db bc 29 5b 02 3c 06 c7 6b bc dd c3 81 bd
       -0.026789771 0.007956305 -0.014390713 -0.06336186
000090 e9 b2 02 bd 8c 84 fd 3c 8c 76 f8 3c 8d 98 d4 3c
       -0.031908903 0.030946992 0.030329965 0.025951648
0000a0 d4 8f 15 3c ac d1 08 3d 83 c9 5f bd 7b 4e ea bc
       0.00912853 0.033403084 -0.054635536 -0.028601876
0000b0 7c 67 8b bd 88 eb 0f bd de 11 63 3c ac e3 83 3c
       -0.068068475 -0.03513673 0.01385924 0.016099773
0000c0 5c a7 8d bb 0b f4 fd 3c 76 bd 31 3c da cf 7e bd
       -0.0043229293 0.031000158 0.010848394 -0.06220994
0000d0 f9 45 c5 bb 7e cd f8 bc d6 99 0e bd 3f 35 97 3d
       -0.0060203043 -0.030371424 -0.034814678 0.07383203
0000e0 50 c7 cd bc 05 53 d7 3d 79 84 23 ba 79 3a 50 3d
       -0.025119454 0.105138816 -0.00062376965 0.050837014
0000f0 d2 b7 84 bc ac b0 5f bd fb 9a 15 bc 30 5b 9f 3c
       -0.016200934 -0.054611847 -0.0091311885 0.019452661

lrm.conv3.weight f4 [1, 64, 3, 3, 3]
000000 ac 23 ce 3e 60 00 95 3d fd 88 06 3d 91 90 79 3e
       0.4026159 0.07275462 0.032845486 0.24371554
000010 04 71 9b bc 31 f4 cf bd e4 ea 1d 3e cf 64 ee 3c
       -0.018974788 -0.10153998 0.15421635 0.029100804
000020 27 be 11 be a7 f2 9b 3e 48 99 8b 3d 39 85 86 bd
       -0.14232694 0.30458567 0.068163455 -0.06568379
000030 c2 b1 d9 3d 29 24 08 be dd 8f 80 be 54 e4 4d 3d
       0.10629608 -0.13295044 -0.2510976 0.05026658
000040 53 c8 13 be f8 cc 77 be 96 9a 7b 3e c6 4b ba 3d
       -0.14431886 -0.24199283 0.24570689 0.09096484
000050 c8 a6 be bc 17 6b 1b 3d ee 60 ff bd bf cf 3b be
       -0.023272887 0.037943926 -0.1246966 -0.18340968
000060 f6 a2 d6 bd 7d 62 60 be 9c c0 4b be 9f a5 69 3d
       -0.10480301 -0.2191257 -0.19897693 0.057042714
000070 e8 1d e3 bc 4f 7f 54 bd 24 b0 b4 3c 6d 68 de bc
       -0.027724221 -0.051879223 0.022056647 -0.027149403
000080 91 76 a4 bd ab bf 6a 3d 0d a4 bf 3c ed 9a 24 bd
       -0.08030427 0.057311695 0.023393655 -0.04018681
000090 a4 5b c0 bc 85 a1 ab 3c f6 61 2a bd 78 c4 1b 3c
       -0.023481198 0.020951042 -0.04159733 0.009507291
0000a0 10 76 f9 bc 64 53 83 bd eb 84 1f 3c 0e 7d 22 3c
       -0.030451804 -0.0641239 0.00973628 0.009917511
0000b0 e8 27 80 bd 87 c9 7d bc 35 e4 69 3d 21 5a 1d 3c
       -0.062576115 -0.015489942 0.0571024 0.009604008
0000c0 73 65 2f bb 5b 41 b8 bb 19 84 b4 bc ea cf 08 3d
       -0.002676335 -0.0056230254 -0.022035645 0.033401407
0000d0 0a bc b1 ba 34 79 cf bc 3a fc a6 bc 01 28 d8 bc
       -0.0013560068 -0.025326349 -0.020383943 -0.026386263
0000e0 56 f5 f8 bc df 63 f6 3c 5a e3 51 3b 8c 75 2d ba
       -0.030390423 0.03007692 0.0032026381 -0.0006616942
0000f0 16 d1 9a 3c b3 8a 80 ba 88 76 a9 3c e8 bb 06 bd
       0.018898528 -0.0009806961 0.020686403 -0.032894045
000100 7c 50 48 3c 1a 66 1f bd f9 ee 0b bc 5e 43 a9 bc
       0.01222622 -0.03891573 -0.008540862 -0.020662006
000110 e2 e4 99 bc 55 4d 38 bc ed 46 14 3c ce b2 78 bb
       -0.018785898 -0.011248906 0.009050113 -0.0037948373
000120 0e 76 b3 bb 46 69 8a bc 0d 76 26 bd f8 c1 8f 39
       -0.0054767197 -0.016895901 -0.040639926 0.00027419603
000130 72 b0 58 bc 04 ee 06 bd b4 f6 89 3c 2c ef 0a 3c
       -0.013225662 -0.032941833 0.01684127 0.008479875
000140 f4 ea c2 3c 12 a4 19 3d 2e fc 91 bc 6d ce f7 3c
       0.023793675 0.037509985 -0.017820444 0.030249799
000150 ec c8 33 3c e2 19 06 3c e7 0d dd 3c 39 ed 93 3c
       0.0109731965 0.008184882 0.026984168 0.018057453
000160 05 4d 55 3c d8 84 a4 3c c7 ca e3 3b a5 e4 83 bc
       0.013018851 0.020082876 0.006951663 -0.016100237
000170 d5 eb b3 3b 7a a1 8b 3c 36 37 6f 3c 3b c5 c5 3c
       0.00549076 0.017044771 0.014600566 0.024141898
000180 f2 a1 a5 3c 88 00 85 bb be 29 89 3c 1f a9 61 bc
       0.020218823 -0.004058901 0.016743537 -0.013773232
000190 63 ed f8 3b 63 03 91 bc 73 a1 23 3c d0 5a b2 bb
       0.007596658 -0.01770181 0.009987223 -0.0054429546
0001a0 3e 0f a6 bc 4d 6f 90 3c 84 ad 3a bc d1 e5 85 3c
       -0.02027094 0.017631197 -0.011393908 0.016344937
0001b0 0d 10 3f bf 63 2b 13 bf f2 3a e4 be 9c 49 0e bf
       -0.74633867 -0.5748808 -0.44576222 -0.5558107
0001c0 6e 05 27 bf 1b ef 15 bf 67 6a 13 bf 50 95 b0 be
       -0.6524266 -0.5856797 -0.5758423 -0.34488916
0001d0 74 05 a5 be 27 53 fe be 99 1a 87 be 7e 09 a1 be
       -0.32230723 -0.49672815 -0.2638748 -0.31452554
0001e0 3c 82 6b be ff 83 49 be 4c f4 e8 be 9e 2a 09 bf
       -0.22998899 -0.19679259 -0.45498884 -0.53580654
0001f0 bc a8 0b bf 65 f3 7a bf af 80 24 bf 72 e1 8f bf
       -0.54554343 -0.9802764 -0.64258856 -1.1240675
000200 71 4f b9 bf 6b a3 ff be b5 cb 65 bf 18 76 9b bf
       -1.4477369 -0.49929366 -0.8976396 -1.2145414
000210 d3 09 29 bf 1a 75 33 bf a7 e3 88 bf 85 ac 12 bf
       -0.66030616 -0.7010056 -1.0694474 -0.57294494
000220 71 d2 25 be 15 21 f4 be e2 57 0a bf f2 2d 91 be
       -0.16193558 -0.4768149 -0.5404035 -0.28355366
000230 92 89 c6 be 6c a9 1c bf d0 ce fb be ce f7 06 bf
       -0.38776833 -0.6119602 -0.49181223 -0.5272187
000240 af dc 36 bf 4f 87 da be 2c b0 34 bf 6b c9 0f bf
       -0.71430486 -0.42681357 -0.70581317 -0.56166714
000250 10 88 c6 be ad a3 05 bf 7c 86 45 bf 61 af 24 bf
       -0.38775682 -0.52202874 -0.7715833 -0.64330107
000260 06 61 4b bf 99 d4 38 bf 49 94 44 bf 5b 62 58 bf
       -0.7944492 -0.721994 -0.76788765 -0.8452508
000270 47 0b 37 bf d1 cc 35 bf b1 53 4a bf 49 8c 2f bf
       -0.7150158 -0.7101565 -0.7903395 -0.68573433
000280 da bd 41 bf 62 64 7e bf 33 1c 23 3e 39 03 fb 3d
       -0.75680315 -0.9937192 0.15928726 0.12256474
000290 ca 98 00 3e 51 3c b5 3a aa 9f a3 3d f8 14 d7 3c
       0.12558284 0.001382718 0.07989438 0.026255116
0002a0 94 d1 e2 bc 00 01 71 bc d0 11 34 bc a8 a0 9e be
       -0.027687825 -0.014709711 -0.010990575 -0.30981946
0002b0 68 16 d1 bd 57 d5 3b bc 77 b8 50 be 0e 82 12 3b
       -0.10209352 -0.011464438 -0.20382868 0.002235535
0002c0 19 19 c3 3b 32 fe bc bc 73 07 a7 3d 2c ae b3 3d
       0.0059539196 -0.023070429 0.08155718 0.08773455
0002d0 34 00 0a bf 26 47 2a be d5 2c 9c bd 43 00 40 be
       -0.5390656 -0.16628703 -0.076257385 -0.187501
0002e0 d1 b6 08 3d a3 5c 0f 3e 09 26 94 3d f7 ff ce 3d
       0.033377472 0.14000182 0.07233817 0.10107415
0002f0 f3 6d f1 3d e1 5d ff bc 4b d6 8b 3c f7 80 00 3d
       0.11788549 -0.031172695 0.017069956 0.03137299
000300 e7 f1 81 bc aa 9b a7 bb 38 c0 cc 3c 8e fe b5 bc
       -0.015862418 -0.005114992 0.024994 -0.022216108
000310 45 78 53 3c 95 92 91 3c 94 eb 0a bd 86 12 c1 bc
       0.012907092 0.017770091 -0.03391607 -0.023568403
000320 94 76 c1 3c 23 92 54 bd 55 48 fc bb ed 79 f1 3b
       0.023616113 -0.05189718 -0.0076990523 0.007369271
000330 a2 24 d7 bc 2c 3b 87 bc 2b 2d 20 3d c1 f5 da bc
       -0.026262585 -0.016507708 0.039105576 -0.026728513
000340 5e 58 6a bc 12 27 65 bc 4a fc 59 3b 37 7f d3 bc
       -0.014303295 -0.013986366 0.0033261948 -0.025817497
000350 39 27 4a 3c 00 23 38 bc 03 30 21 bc 66 cb df 3c
       0.012338453 -0.011238813 -0.009838107 0.027318668
000360 b8 18 0f 3e df 1b 5e 3d 09 5c 17 3e 69 4c b6 3d
       0.13974273 0.0542258 0.14781202 0.08901293
000370 c3 55 2f 3d fc a7 e9 3d b6 0c e4 3c 3b 01 e1 3d
       0.042806398 0.114089936 0.027838092 0.10986563
000380 d8 a9 ee 3d 9c 38 15 bd b5 65 26 3d a5 b6 19 3e
       0.11653489 -0.03643094 0.04062434 0.1501108
000390 19 7d f5 bd a1 c1 4c 3d 07 d4 e0 3d 0b f5 69 be
       -0.11986751 0.049989346 0.10977941 -0.22847383
0003a0 cf dd e5 3d 37 de 87 3d fc bb e3 bd 4c 29 35 be
       0.11223947 0.06634181 -0.111198395 -0.17691535
0003b0 06 c9 91 3d 38 c9 83 be 49 23 92 be 50 91 35 3d
       0.0711842 -0.25739455 -0.28542545 0.044328034
0003c0 d5 f4 df be a1 09 8b be 08 71 2b 3a 3c b3 29 bc
       -0.4374148 -0.27155784 0.00065399753 -0.010357674
0003d0 e1 e5 ab 3b a5 c3 e9 3c 4d 62 f6 ba 44 1d 89 bc
       0.0052459096 0.028535673 -0.0018797606 -0.016737588
0003e0 45 e2 60 3c d5 25 b1 3a f8 02 56 3c 72 3c 04 3c
       0.013725822 0.0013515303 0.013062231 0.008071052
0003f0 52 09 5d 3b 64 14 c1 bc 48 b2 16 3d 2a 67 4f 3c
       0.003372748 -0.023569293 0.036791116 0.012658874

lrm.conv4.weight f4 [32, 48, 3, 3]
000000 0f 1b 5e bd 11 29 61 bd a5 54 60 bd 9b a1 8b bb
       -0.054225024 -0.054970805 -0.054768223 -0.004261208
000010 89 74 ca bb c4 cd 20 3c 86 f5 98 bd 52 c4 70 bc
       -0.006178443 0.009814683 -0.07468705 -0.014695244
000020 ce 7e 09 ba 2a 35 9e bd 64 09 25 bd f5 99 64 bd
       -0.00052450306 -0.07724984 -0.04029216 -0.055810887
000030 41 b1 86 bd 8d 3a ca bb 1b 84 d2 bc 68 63 24 bc
       -0.06576777 -0.0061715306 -0.025697758 -0.010033466
000040 40 f7 5c bd bd 0c 33 bd 1b 13 18 bd 69 f8 b6 bc
       -0.053946733 -0.04371332 -0.037127595 -0.022335248
000050 0d b0 26 bb 8d db 57 bd 25 cf 1b bd ac 7b 3d bd
       -0.0025434524 -0.052699614 -0.038039345 -0.04626052
000060 fa 0d 27 bd 89 06 49 bd df 5d b9 bc 54 4d a2 bd
       -0.040784813 -0.049078498 -0.022627769 -0.079249054
000070 6e 71 86 bc 7d 3e db 3b a5 37 84 bd 21 d5 11 bd
       -0.01641151 0.006690799 -0.06455926 -0.035603646
000080 f6 e3 4f bd 8d ce 3a 3c 31 59 88 bc 20 52 59 bd
       -0.05075451 0.011401785 -0.016644092 -0.053056836
000090 92 9e aa bc 22 f7 62 bd 0a 94 98 bd f4 90 d3 bc
       -0.020827565 -0.055411465 -0.07450111 -0.025825955
0000a0 3d 5a 1f 3c 10 2b 12 bc 3c 4e 79 bc 3e 9f b6 bc
       0.009726104 -0.0089214 -0.015216406 -0.02229273
0000b0 b0 96 99 bd fc b1 0c bd 89 f7 ab bc ac 6e 7d bc
       -0.074994445 -0.034349427 -0.020992057 -0.015468281
0000c0 92 d7 5c bd 1f 7a 87 bd 1a 7d c5 bb 20 26 ad 3b
       -0.05391652 -0.066150896 -0.006026876 0.005284086
0000d0 13 a0 16 bd 55 13 99 bd 7d e5 4c 3c 80 82 15 bc
       -0.036773752 -0.074743904 0.012505886 -0.009125352
0000e0 31 c2 03 bb 3c ad 8f bd cc 77 96 bd 55 d6 de bc
       -0.002010476 -0.07015464 -0.07347068 -0.02720181
0000f0 f7 95 85 bb 63 a4 a3 bd bb 5b 89 bd cc 1e 18 bc
       -0.004076715 -0.07990339 -0.06706949 -0.009284686
000100 17 79 9f bc 94 27 6f bd b2 4c 6a bd a5 e8 00 bd
       -0.01946692 -0.058387354 -0.05720205 -0.031471867
000110 6f a7 43 bb ca 0a 0c bd 9d d2 90 bd 90 a8 69 bd
       -0.0029854437 -0.034189977 -0.07071421 -0.05704552
000120 47 b5 29 bd b2 df a0 bd 3c ee 91 bd 55 7c 68 bd
       -0.041432645 -0.078551665 -0.07125518 -0.056759197
000130 05 75 1d 3c d9 65 98 bd 88 3b 8c bd db 89 08 bd
       0.009610419 -0.07441301 -0.06847292 -0.033334594
000140 bc df 7e bc 4b 59 80 3c b4 b7 a3 ba f1 71 93 bd
       -0.015556272 0.015667578 -0.0012490661 -0.07199467
000150 b3 7b d5 bc b8 0d 60 bd 29 4c 0c bd dd 1a 57 bd
       -0.026059961 -0.054700583 -0.03425232 -0.052515853
000160 65 75 80 bd 15 aa 21 bd 5c bb 70 3c 68 8e 81 bd
       -0.06272391 -0.039468843 0.014693107 -0.0632599
000170 a0 e0 70 bd 76 84 75 bd 60 62 43 ba da 97 80 bd
       -0.05880797 -0.059940778 -0.00074533187 -0.062789634
000180 06 57 70 bd 91 72 67 bd a8 6a 14 3c a0 a9 66 bc
       -0.058676742 -0.056505743 0.009058632 -0.014078528
000190 4d c5 a2 bd b8 ef 5a bd a5 4e 84 bd 48 65 93 bd
       -0.079477884 -0.05345127 -0.06460313 -0.07197052
0001a0 b7 93 8d bd 91 5c cd 3b 4b 39 8e bd 90 40 8b bd
       -0.0691294 0.0062671383 -0.069445215 -0.06799424
0001b0 c4 22 f8 3b b2 0d 8b bd 85 6d 2f bc fa 8f 4b bd
       0.0075725038 -0.067897215 -0.010707264 -0.049697854
0001c0 06 cb 8b bc 97 e1 93 bd 38 3f 14 3c fb bf 91 3a
       -0.017064583 -0.07220762 0.009048276 0.0011119837
0001d0 f9 ff 0c bd 65 4a 72 bd 5b 8e 47 bb db 4c 9b bd
       -0.034423802 -0.05915298 -0.003044984 -0.075830184
0001e0 4d ef 52 3c 2f 88 87 bd 01 aa 69 bd 46 76 48 bd
       0.012874437 -0.06617772 -0.057046894 -0.04894092
0001f0 35 f5 4a bc 88 38 8d bd db d0 08 bc 96 36 3e bd
       -0.0123875635 -0.06895548 -0.008350576 -0.046438776
000200 31 19 63 bd 4b 79 42 3b 3c 73 3f bb fa 50 b3 bc
       -0.055443946 0.0029674347 -0.0029212972 -0.021889199
000210 e5 8c c5 bc e1 ee 11 bd 58 e9 10 bc 4d 82 e7 bc
       -0.024115035 -0.035628203 -0.008844696 -0.028260374
000220 5a 06 96 bc a2 ec 57 bc 34 e6 a2 bd f2 21 9a bd
       -0.018313576 -0.013178976 -0.07954064 -0.07526006
000230 7b 34 09 bd e8 db 94 bd 2b d8 94 bd 5f 93 af bc
       -0.033497315 -0.07268506 -0.07267793 -0.021432577
000240 26 e6 a2 bd 18 a2 a2 bd 79 2e 47 bd d2 02 5d bd
       -0.079540536 -0.07941073 -0.048628304 -0.053957768
000250 a5 81 92 bd 95 46 f0 bc 3e f6 1e bd f1 e8 e5 3b
       -0.07153634 -0.029330531 -0.038809054 0.007016294
000260 4e 51 4d 3c b5 e8 4f bd 7d 54 21 bc 6b f2 77 bd
       0.012531592 -0.050759036 -0.009846804 -0.060533922
000270 04 75 c8 bc 62 5b 35 bd 3f b5 42 bd 5d 31 82 bd
       -0.02446986 -0.044276603 -0.04753613 -0.063570715
000280 ea 75 16 bd 4f dc 39 bd cd 35 a2 bd 3c 51 a0 bd
       -0.036733545 -0.04537612 -0.07920418 -0.07827994
000290 69 07 a1 bd 62 35 15 bd b6 d7 9c bd df af 6b bd
       -0.078627415 -0.036427863 -0.07658331 -0.05754077
0002a0 bd 2c 0e bd 37 83 d1 bc 97 53 00 3c a6 c3 42 3c
       -0.034710634 -0.025575263 0.007832429 0.011887467
0002b0 db 28 1c 3b 75 96 1b bc 2b 9f 69 bc ee ec f6 bc
       0.0023828063 -0.009496321 -0.01425914 -0.030142274
0002c0 b0 7d 0b bd 7f bf b2 bc 9d be 12 bd 91 01 88 bd
       -0.03405541 -0.021819828 -0.035826314 -0.06640924
0002d0 94 c0 4b 3c 79 48 58 bd a2 a9 86 bd e4 d6 7f bd
       0.012436051 -0.05280349 -0.06575324 -0.062460795
0002e0 a8 0c 15 3c 83 66 8f bd 8e dc 35 3c 6a d1 7c 3c
       0.009097256 -0.070019744 0.011099948 0.015430788
0002f0 09 94 95 bd 65 e1 19 bc 24 25 3b bd f6 ce ec bc
       -0.07303626 -0.009392117 -0.045689717 -0.02890728
000300 af 86 7e bd 0d 94 8c bd 78 c3 91 bd 23 2c 79 bd
       -0.062140163 -0.06864176 -0.07117361 -0.060833108
000310 0c 88 ee bc 7e 65 0e 3b 7c 72 59 3c aa 2e 7b bc
       -0.029117607 0.0021727975 0.013271924 -0.01533095
000320 c6 14 c2 bb 5e bd 30 bd 3a fb 60 bd 3b b6 b1 bc
       -0.0059228865 -0.043149345 -0.05492709 -0.02169334
000330 1d f6 4d bd a2 5c 9a bd 11 f1 32 bd 51 0e b9 3b
       -0.05028354 -0.075371996 -0.04368693 0.0056474586
000340 01 de 2b bc 7a df 5c 3a ed 47 92 bd 1d 94 cd bc
       -0.010489942 0.00084256346 -0.07142625 -0.02509504
000350 d2 3b 79 3a 21 a8 4a bc a8 ca 87 bd 0b af 48 bd
       0.000950751 -0.012369187 -0.066304505 -0.04899506
000360 b5 a1 f9 3c 09 ed 53 3d 58 f3 f6 bc 40 4e 0c bd
       0.030472616 0.051739726 -0.030145332 -0.034254313
000370 0e e6 2a bd 54 db b7 3b 19 c4 96 bd a8 1d 36 bc
       -0.041723303 0.0056108627 -0.073616214 -0.011115469
000380 e0 20 c8 bc fd 51 63 bc 54 81 8a 3d 34 15 83 bc
       -0.024429739 -0.013874528 0.06762949 -0.016001321
000390 73 96 9e bd 14 46 80 bc fb 42 45 bd fc 85 4d bd
       -0.0774354 -0.015658416 -0.04815958 -0.050176606
0003a0 85 7b ed 3a 22 f3 23 bd 5a f2 84 bd 09 0d ba bc
       0.0018118477 -0.04002679 -0.064915374 -0.022711294
0003b0 99 05 7f bd 79 9a 82 bd c0 f1 58 bd fb 9b cf 3b
       -0.062261198 -0.063771196 -0.052964926 0.006335733
0003c0 04 74 19 3b 0f eb ec bc be 62 5f bd 4a 64 2e 3c
       0.0023415098 -0.028920678 -0.054537527 0.010644028
0003d0 99 b5 ce bb 34 f4 55 3c d1 12 12 bb 5d 9a ad 39
       -0.006308269 0.013058711 -0.0022289047 0.0003311214
0003e0 33 68 42 bd b6 81 35 3b 94 50 3e bb 33 96 4d bd
       -0.047462653 0.0027695722 -0.0029039728 -0.05019207
0003f0 15 23 b8 bb ef bf 12 bd 22 c7 09 bd 54 4f 26 bc
       -0.0056194165 -0.035827573 -0.033637173 -0.010150749

lrm.conv4.bias f4 [32]
000000 6b 8d 4d bd 76 2b 06 3b 66 c1 10 bd ab 46 0b bd
       -0.050183695 0.0020472682 -0.03534069 -0.03400294
000010 37 5e 24 bd 93 31 1e bd d3 73 8d bd 9e 78 0c bd
       -0.040128913 -0.038621496 -0.06906857 -0.034294717
000020 48 9d 86 bd d0 cc 80 3e a3 08 05 bd 73 8d 41 bc
       -0.06572968 0.2515626 -0.03247894 -0.011813509
000030 c8 21 6e 3c 76 13 df bc b9 44 0d bd 25 d1 83 bc
       0.014534421 -0.02723096 -0.034489367 -0.016090939
000040 4e 7e 3f 3c bb da 86 bd 94 43 08 bd 18 56 84 bd
       0.011687828 -0.06584688 -0.033267573 -0.064617336
000050 40 e0 8b bd 02 c2 fa bc 6b 7d 80 bd 50 be b7 bc
       -0.06829882 -0.030610088 -0.062739216 -0.022429615
000060 c9 72 c6 bc 2d 7b 23 bd 38 f5 05 bd 27 a6 4e bd
       -0.024224656 -0.03991239 -0.032704562 -0.050451424
000070 0a 01 85 3b 99 90 5a bd 2e 2b 8f bd 93 a6 c9 bc
       0.0040589618 -0.053360555 -0.06990658 -0.024615562

lrm.conv5.weight f4 [1, 32, 3, 3]
000000 98 a3 26 bd 78 ed ab bc 28 64 80 3b 8f b5 e9 bc
       -0.04068336 -0.020987257 0.0039181896 -0.028528957
000010 e1 b5 2d bb 0f bc 25 3c f4 4b 59 bc cc e9 6c bc
       -0.0026506113 0.010115637 -0.013262738 -0.014460038
000020 10 34 88 3a 59 f9 20 bd 92 05 19 bc e3 e1 fa 3c
       0.0010391492 -0.039300296 -0.009339707 0.03062529
000030 f6 ea c7 3c 5a 2f f1 b8 78 b5 8d bc ca a4 f5 bb
       0.02440403 -0.000115005954 -0.017298445 -0.007496451
000040 88 fd d0 3c 6c d0 3f bc 4b 9b 36 bc 4b 04 b5 bc
       0.025511518 -0.0117074065 -0.011145423 -0.022096774
000050 a9 2b 6b 3d f1 ce ae 3b f1 7f 6e 3c 84 66 f5 bc
       0.057414684 0.005334728 0.014556871 -0.02995611
000060 31 65 14 bd 29 c8 37 bd 24 71 9a bd ee 93 ac 3a
       -0.036229316 -0.044868622 -0.07541111 0.0013166645
000070 d6 d8 07 39 8a c8 52 3d a4 ed d0 bc a5 37 5a bd
       0.00012955381 0.05146078 -0.02550394 -0.053275723
000080 29 0a 57 bc 73 fc 9c bc 9b e7 bb 3c 77 d8 4e bc
       -0.013124981 -0.019163346 0.022937587 -0.012624851
000090 78 43 66 bd b0 d9 1e bd ae ad 5f 3d 8e 52 e1 3c
       -0.056216687 -0.03878182 0.054608993 0.027505185
0000a0 4c 72 45 bd 6c 24 5b bd eb 1e dd 3c 53 95 2f 3d
       -0.048204705 -0.05350153 0.026992282 0.042867016
0000b0 e5 56 86 bc 36 5b 71 3c 3f fa 1b bc 49 8c 57 bd
       -0.016398856 0.014731219 -0.009520113 -0.05262402
0000c0 0b 9d 8e 3c aa 1f 76 3d 72 2e 4e bd 47 8f 35 bd
       0.017408868 0.06008879 -0.050337262 -0.044326093
0000d0 a8 e6 34 3d e8 0c 91 bc b8 39 27 3d b4 82 3d bc
       0.044165283 -0.01770635 0.04082653 -0.011566807
0000e0 60 12 72 bc 20 d4 4b 3c a8 76 15 bd 27 1e 99 3b
       -0.014774889 0.012440711 -0.036490113 0.004672784
0000f0 a4 36 24 bd ba c0 26 bb 2d ea 22 bd c0 c2 bb 3a
       -0.04009117 -0.0025444464 -0.03977411 0.0014325008
000100 bf a5 e8 ba 14 30 5e bb a1 b6 8f bd 33 33 26 bc
       -0.0017749591 -0.0033903169 -0.070172556 -0.010144043
000110 53 45 af bb aa 86 79 bd 1f bf 7e 3d f5 d7 04 3d
       -0.0053488403 -0.06091944 0.062193986 0.032432515
000120 15 b1 82 3d 7f 33 28 3c 92 6c 2b 3d 59 48 a6 bd
       0.06381432 0.010266184 0.041851588 -0.08119268
000130 dc b1 9b 3a 81 d3 16 3c be ec 12 bd 06 3a c9 bd
       0.0011878568 0.0092057 -0.035870306 -0.0982552
000140 1b ef 59 3b 7a 5d cf 3c 01 47 49 3d 60 60 78 bc
       0.003325409 0.025313128 0.04913998 -0.015159696
000150 83 6b ad 3d 06 72 b1 3d 6b 45 0b bc cc 2d a6 3d
       0.08467772 0.08664326 -0.008500437 0.08114204
000160 e2 78 ac 3c 05 65 5e 3d e6 e3 16 bc a4 ad 39 3d
       0.021053735 0.05429556 -0.009209609 0.045331612
000170 d0 97 03 bb fd ce 94 bc 7a 56 15 3d e8 ac e8 3c
       -0.00200795 -0.018165106 0.036459424 0.02840276
000180 d1 3d 75 bd 1b 17 61 bb cf 6b 0a bd ca 69 b1 3c
       -0.059873406 -0.0034346047 -0.03379422 0.02165689
000190 c6 b0 46 3c da 49 08 3d 95 8a 36 3d 35 03 96 3c
       0.012127107 0.033273555 0.044565756 0.018312076
0001a0 29 f8 51 3a 0d ea 86 bc a6 6b 42 3d f7 7c c9 3b
       0.0008009696 -0.016469026 0.047465943 0.00614893
0001b0 f6 9d 3e bd c8 97 c4 bc 62 d7 8a 3d 28 16 a1 3c
       -0.046537362 -0.023998156 0.06779362 0.019663885
0001c0 01 08 ab 3d 42 3a 77 bc 36 62 2e bc b7 e2 b7 bc
       0.08351136 -0.015089573 -0.0106435325 -0.022446973
0001d0 50 cd 17 bc ff 5d b1 bd 15 80 dc 3c 7e 5e 80 3d
       -0.009265259 -0.086605065 0.026916543 0.06268023
0001e0 20 15 40 bd e4 59 b5 3b 98 76 b9 3d 21 ef 64 bd
       -0.046895146 0.0055343974 0.09055823 -0.055892114
0001f0 08 12 73 bd 67 5d 75 3d be ad 04 bd 87 3a c6 3c
       -0.059343368 0.05990353 -0.032392256 0.02419783
000200 4e a7 6b bd d7 74 22 3d 99 7c 4c 3b 6f 05 98 3c
       -0.0575326 0.03966221 0.0031202196 0.018557278
000210 8f f2 77 bd 3c 8b 1b 3d 5f c1 15 bd 6a d1 95 bd
       -0.060534056 0.03797458 -0.036561366 -0.07315333
000220 50 2f 0c bd 82 ef 80 bd 61 0f 8c 3c 8a a1 f8 3b
       -0.03422481 -0.062956825 0.017097177 0.0075876163
000230 88 6d 16 bd a3 9b 11 3d a0 b6 ff ba 77 55 94 bd
       -0.03672555 0.035548817 -0.0019509383 -0.072428636
000240 b5 7d 21 3c 2a b3 5f bd 05 17 35 bd 38 61 90 3a
       0.009856631 -0.054614224 -0.044211406 0.0011015302
000250 20 a5 bb 3c c4 94 1b 3d 02 bc de 3b 8b 9f 95 bc
       0.022905886 0.03798367 0.0067973146 -0.018264553
000260 62 04 14 3d 24 11 10 3d 2b bb 9b bc e3 54 21 bc
       0.036136992 0.035172597 -0.019010147 -0.009846899
000270 95 aa a7 bb 82 98 8e bd 98 db f9 3c 86 12 23 bc
       -0.0051167705 -0.06962682 0.030500218 -0.009953147
000280 40 14 8e bc 49 12 50 bc 6b 5e 86 bc 55 35 5a 3c
       -0.01734364 -0.012699672 -0.016402444 0.013318379
000290 80 1e a6 bd ea da a3 bc 6f ab 84 bc c8 c1 ee bc
       -0.08111286 -0.020001847 -0.016195027 -0.029145136
0002a0 4b 53 87 bd 05 ef d3 bc e7 f8 f2 3b 41 9c 5c 3d
       -0.06607684 -0.02587081 0.0074149254 0.053859953
0002b0 b3 27 05 bc ba 11 1c bd c3 82 13 bd c8 cd f5 3c
       -0.008127141 -0.038102843 -0.036013376 0.03000535
0002c0 10 8e c0 bb f6 48 c7 3c 68 9a 83 bc aa cc 49 3d
       -0.00587631 0.024326783 -0.016064838 0.04926745
0002d0 e6 83 b3 bc cd b6 20 bd da 6a dd bc b2 fd 32 bd
       -0.02191348 -0.039236832 -0.02702849 -0.043698974
0002e0 81 e8 74 3c 7e 39 0a bd e8 b0 e8 bc 15 c1 ae bc
       0.014948011 -0.033746235 -0.028404668 -0.021332303
0002f0 13 ca 36 3d 70 6a ce 3b 64 48 17 3d 04 3f 73 bd
       0.044626307 0.0062993094 0.03693427 -0.05938627
000300 50 fe 5f bd ec 60 6f 3c bd 68 e0 bc a2 63 4d ba
       -0.05468589 0.01461051 -0.027393693 -0.0007834976
000310 c3 3e 18 3d e7 0c b0 3c f7 c5 f4 bc 2e 44 2f ba
       0.03716923 0.021490527 -0.029879553 -0.000668588
000320 96 be 9b bd 09 04 57 ba 8c dd ce 3c f9 40 8f bd
       -0.07604711 -0.00082022004 0.025252126 -0.069948144
000330 6a 2f 6f 3c 5e 45 94 bc ae dd a2 3c a2 b4 ad 39
       0.014598707 -0.018099483 0.019881096 0.00033131713
000340 19 d8 0e 3d 4f e6 59 3a ae 89 47 bd 5c 43 4f 3d
       0.034874056 0.0008312212 -0.048715286 0.05060135
000350 38 d2 09 bd d1 d3 50 bd e0 a0 a3 3c ed 30 4f 3d
       -0.033647746 -0.050983254 0.019974172 0.05058377
000360 2e 76 5a bd 4f 23 0f bb 57 60 15 bd 67 2b 3c 3d
       -0.05333536 -0.0021841114 -0.03646883 0.04593983
000370 81 6c dd bc f2 21 77 bc a3 dd c5 3c 00 72 0f 3c
       -0.027029278 -0.015083777 0.024153536 0.008755207
000380 3e db 5c 3d 4d ca 71 bc 30 ce 94 bb fd d8 7e bd
       0.053920023 -0.014757705 -0.004541181 -0.062218655
000390 87 1e d6 3b 0b 0d be bc cd 6e d5 3c 90 78 a6 bd
       0.006534401 -0.023199579 0.02605381 -0.08128464
0003a0 29 1c 83 bd ea aa c7 bc e9 ae 1d 3d 57 71 01 3d
       -0.064018555 -0.02437349 0.038496885 0.03160223
0003b0 77 b6 2c bd d3 7d 39 bc e9 1e 70 bd 82 b8 54 bd
       -0.0421662 -0.011321503 -0.05862323 -0.051933773
0003c0 72 ee 4f bc fe 4a 63 3c ea bf ae 3c 51 fa f9 bc
       -0.012691127 0.01387286 0.021331746 -0.030514868
0003d0 eb 2f 6c 3d 8a 47 b3 3c 94 4c 69 bb df f0 25 bd
       0.057662886 0.021884698 -0.0035598623 -0.040512916
0003e0 c7 86 8d bc 16 5a b1 bc f0 21 2a bd d7 99 10 bd
       -0.01727618 -0.021649402 -0.04153627 -0.035302963
0003f0 79 e3 25 bd ae 9a 68 bd ba e9 83 3d 31 af 0b 3c
       -0.040500138 -0.05678814 0.06441064 0.008525656

net.conv1.weight f4 [16, 2, 3, 3]
000000 25 63 e0 bd ba df 4d 3e fe 66 16 be 8f 79 48 3e
       -0.1095641 0.20104876 -0.14687726 0.19577621
000010 76 40 03 be 82 78 3f 3d 38 96 41 3c c7 86 59 be
       -0.12817559 0.046745785 0.0118156 -0.2124282
000020 37 e3 17 3e a7 67 34 3e c4 d1 85 3d ca 26 8a 3c
       0.1483277 0.17617665 0.0653415 0.0168642
000030 5f 26 39 be b6 6b 67 be 53 d5 f5 bd 90 3c 50 bc
       -0.18081044 -0.22599682 -0.12003579 -0.012709752
000040 8e ae 51 be 48 07 50 bd e4 76 89 3d 64 ae df bd
       -0.20476744 -0.050788194 0.0671213 -0.10921934
000050 a7 91 1f 3e b9 ad ad 3d 8a c2 3a 3e 56 54 2f 3e
       0.15582906 0.084804006 0.18238273 0.17122015
000060 8b 91 0e be 0e f9 d1 3d d5 59 be bd 0c a6 42 be
       -0.13922708 0.102525815 -0.09294478 -0.19008654
000070 c7 ec 21 be 79 9c 4d be ad 93 9a 3d 97 09 50 be
       -0.1581298 -0.20079221 0.07547698 -0.20316158
000080 80 32 d0 bd f4 8e 26 be 5f 68 96 bc d1 41 a2 bd
       -0.10165882 -0.1626547 -0.018360315 -0.0792271
000090 67 80 31 be f2 ac f7 3d 39 0e be 3d 3c a8 2d 3e
       -0.17334138 0.120935336 0.092800565 0.16958708
0000a0 21 0d 5b 3d 13 08 95 3e d2 55 9e be 9a fb 4a be
       0.053479318 0.29107723 -0.3092485 -0.19822541
0000b0 cd 83 86 bc d5 a2 52 be 38 38 1e be 51 35 e7 3c
       -0.01642027 -0.20569928 -0.15451133 0.028223665
0000c0 0e e9 14 3e 54 44 13 be 33 c7 b0 3d 34 8c 07 3e
       0.14542028 -0.14381534 0.08631744 0.13237077
0000d0 c3 c9 a3 3d 44 a0 03 be 0b 0a 93 3e b3 75 29 be
       0.07997467 -0.12854105 0.287186 -0.16548805
0000e0 43 95 6a be 26 ad 75 3e 7c f3 78 be f2 29 9f be
       -0.22908501 0.23991832 -0.24311632 -0.3108669
0000f0 53 fd 90 3e 4b 3a 70 3d bb a2 21 3e 84 24 4e 3d
       0.2831827 0.058649343 0.15784733 0.050327793
000100 c9 c6 98 3c b5 c7 68 3a 6d e1 c7 3d 26 74 26 3e
       0.018649476 0.00088798563 0.097597934 0.16255245
000110 58 87 33 be d4 b9 82 bc f9 61 1a be a1 ce e9 3d
       -0.17532098 -0.01595775 -0.15076436 0.114163645
000120 6e 60 50 bd f2 da 7e 3d 51 b0 48 be 6c 11 46 3d
       -0.050873213 0.06222052 -0.1959851 0.04835646
000130 80 13 c3 bd 0e fe 6e be 12 6b 2e 3c 1f ee 36 3e
       -0.09525204 -0.23339102 0.010645645 0.17864273
000140 d2 d7 ca 3d 6d e8 4b 3e 82 c9 bf 3d 67 0d c3 be
       0.09904446 0.19912882 0.093646064 -0.38096163
000150 1b 2e a2 bd 26 41 27 3e b2 c2 35 be ed ee 87 3d
       -0.0791895 0.16333446 -0.17750052 0.06637368
000160 4e 10 b4 bd ac b2 69 be 59 4f 58 3e 7f cb 99 3e
       -0.08792172 -0.22822064 0.21124019 0.30038068
000170 3a 1d 51 3e 15 ca 3f 3d c0 af 0a be 1c c1 41 3e
       0.20421305 0.04682358 -0.13543606 0.18921322
000180 9b d8 6b bd 78 13 1e be 2c 25 18 be df b9 2b be
       -0.057579618 -0.15437114 -0.1485793 -0.16770123
000190 cb a2 ae 3d 4f a0 9e be 69 9f 00 3b dd 8f 26 be
       0.08527144 -0.3098168 0.0019626266 -0.16265817
0001a0 66 44 21 be 88 be 97 bc 2a e8 8f bc 80 59 a6 be
       -0.15748748 -0.01852347 -0.01756676 -0.32490158
0001b0 85 75 1a 3d 80 f8 20 be 3a 2a 83 3c 50 bf 50 bd
       0.03770973 -0.15719795 0.016011346 -0.0509637
0001c0 54 08 13 3e 84 b4 12 bd 24 fa 1b 3e 81 12 34 be
       0.14358646 -0.035816684 0.1523214 -0.17585184
0001d0 07 a5 90 bd e9 82 17 3e 09 56 0c 3e 9a 5b c6 bd
       -0.070627265 0.14796032 0.13704695 -0.0968544
0001e0 3e fe 8b 3c 34 d9 19 be 63 63 78 be 60 4c 5d 3e
       0.017089006 -0.15024263 -0.24256663 0.21611166
0001f0 0a 55 a6 bd 21 08 1f 3e 4a 05 fa 3d f0 56 70 3e
       -0.08121689 0.15530445 0.1220804 0.23470664
000200 37 b5 59 3e 89 c6 f0 bd d8 9e c9 be fa 6b b9 be
       0.21260534 -0.117566176 -0.39379 -0.36215192
000210 90 14 26 be 43 5a a7 3e 06 8b 11 3c 1e 56 f5 3d
       -0.16218781 0.32686052 0.008883243 0.11979316
000220 ed 25 f2 3d 52 b1 b5 3d c4 9e 11 3e 5c c9 50 3e
       0.1182364 0.08871712 0.1422072 0.20389313
000230 c1 b9 3e 3d 5f f0 ba 3b 0c cc 36 3e cf 92 3a be
       0.046563867 0.005704924 0.17851275 -0.18220066
000240 07 35 8c bd 8f be 79 3d 64 be 77 bd 30 40 97 be
       -0.06846052 0.060972746 -0.060484305 -0.2954116
000250 48 b0 47 bc 00 2b de 3d 63 81 bb be 70 fa 3e 3e
       -0.012188025 0.10848045 -0.36622152 0.18650222
000260 0a 56 2a be c5 1d 64 3e 5d 65 d2 bc 08 11 77 3d
       -0.16634384 0.22276981 -0.0256831 0.060318977
000270 7d da b5 3d 32 e2 4f 3c de 9a c6 3e 37 01 01 3f
       0.08879564 0.0126882065 0.3879003 0.5039248
000280 90 8c 3f 3e 5e eb c3 3e 0e 08 7c 3e a4 51 ec bc
       0.18705964 0.38265508 0.24612448 -0.028847523
000290 ac dc 37 3e 10 3d 8f bd 2d 34 2b 3d 91 1a 55 be
       0.17955273 -0.069940686 0.041797806 -0.20810916
0002a0 80 da 9d bd 58 26 d6 bd 1d cb 94 3e 24 14 a0 be
       -0.07707691 -0.10456532 0.29061213 -0.31265366
0002b0 45 62 5a bd 6d cd f5 bd ff 4f 24 3d 59 09 b9 3d
       -0.053316373 -0.120020725 0.040115353 0.09034986
0002c0 45 12 4c be d8 34 f7 bd a4 b8 9d be de 65 4a 3d
       -0.19928844 -0.12070626 -0.30804932 0.049413554
0002d0 57 0e a2 be 77 69 13 be 5f c1 8f be 1b 3d 13 bd
       -0.31651565 -0.143957 -0.28077218 -0.035946947
0002e0 9b 13 a0 3e 96 37 1a 3e 26 ad 11 3d 84 64 1a 3e
       0.31264958 0.15060267 0.035565518 0.15077406
0002f0 be 21 84 bd 47 fe e9 3b 9d c3 f4 bd 25 8b 5a be
       -0.06451748 0.007140908 -0.11951373 -0.21342142
000300 f3 c8 6c be 49 34 bd bd 53 02 55 3e 95 18 56 3d
       -0.23123531 -0.09238488 0.20801668 0.052269537
000310 f4 7e 2b 3e 60 3c 7b bd b0 c0 80 3e e9 f4 5a be
       0.16747648 -0.061336875 0.2514701 -0.21382488
000320 d9 e1 03 be a8 3e b0 3e d8 4c ab bd ff 63 e3 bd
       -0.12879123 0.34422803 -0.08364266 -0.11103057
000330 3e 73 73 3e 8a d2 64 be 64 63 4d 3d d6 77 ed bd
       0.2377443 -0.2234594 0.050143614 -0.115951225
000340 15 dc e3 3d 5c 6f 3e be ca d4 ce 3d 06 a0 b2 3d
       0.11125962 -0.18597168 0.1009918 0.08721928
000350 0b 9c e7 3d fb 44 9d 3d 9c 86 07 be db 89 c0 3d
       0.1130906 0.076791726 -0.13234943 0.09401294
000360 9a 79 8d 3b c7 44 9e bc e8 ce 2d be c4 1f 25 3d
       0.0043174746 -0.019319905 -0.1697346 0.040313497
000370 63 67 33 3c ec da c1 3d 5f b7 af bd b7 b6 37 be
       0.010949942 0.09465584 -0.08579897 -0.17940794
000380 41 92 be 3d 4c 44 c0 bd 80 c4 08 3e 0d c2 08 be
       0.093052395 -0.093880266 0.13356209 -0.13355274
000390 38 74 36 bd 17 6c f0 bd 69 58 4e be 95 91 09 3e
       -0.04454443 -0.117393665 -0.20150913 0.13434441
0003a0 ee cd 5e be 5f e6 57 be 2c 03 10 3c 5b 9e f0 bd
       -0.21758243 -0.21083973 0.008789819 -0.11748954
0003b0 11 c0 22 3e 3d 0b 9c bd 29 da 92 bd a0 33 68 be
       0.1589358 -0.07619331 -0.07170517 -0.22675943
0003c0 3f 87 b7 3d 02 9a 7b be 28 c5 62 be fa 7f 9a 3e
       0.08961343 -0.24570468 -0.22145522 0.30175763
0003d0 34 98 33 3e 08 d3 61 3e 61 ed 5c 3e 31 03 3e 3e
       0.1753853 0.22053158 0.21574928 0.18555905
0003e0 83 88 de bc 10 54 8d 3d df 7b 20 be e0 61 1f 3e
       -0.027164703 0.06900799 -0.15672253 0.1556468
0003f0 a9 db 2d bd b7 51 21 3d df de 14 be 08 9b 8c 3e
       -0.042445812 0.03938457 -0.14538144 0.2746203

net.conv1.bias f4 [16]
000000 4b b4 98 be 06 d7 12 bf 4f 67 30 be de a2 cd be
       -0.29825053 -0.5735935 -0.17226909 -0.4016332
000010 a9 2f 98 3e 95 99 d5 be b2 07 f9 bd 76 f7 23 be
       0.29723862 -0.41718736 -0.12159671 -0.16012368
000020 1c 49 1e 3e a3 f8 a1 be 8e fd 87 be 87 6d 84 bd
       0.15457577 -0.31635007 -0.26560634 -0.06466203
000030 93 24 b3 bd 80 d2 de 3d 73 d0 19 be c6 9d a4 3d
       -0.0874721 0.108799934 -0.15020923 0.080379054
