models/TACEnet_vessel_enhancement_deformations_06062024.pth (torch, 316058 bytes, 13 tensors)

lrm.conv1.weight f4 [32, 1, 3, 3, 3]
00000000: 8535 3b3e a891 89be 6fc3 b9be 090d 493e
00000010: 4277 55be 950e 25bf c56b 2cbe d092 abbe
00000020: 0bb9 71be 1012 9a3d 6d65 58bf d305 96bd
00000030: 2dda bd3e 67da b1bd c0b2 20bf eb5a eabe
00000040: b9a0 a1be 1fd2 c4be 354e b7bc 02dd e2be
00000050: 27bb 7cbe 2917 813d e34c ffbe 91de 8fbd
00000060: f78e 9fbe d14b 0cbf adf2 793d ab53 dabe
00000070: e3c7 75bf 901f 903c 154b 9f3d 28a4 853e
00000080: 6db1 b2be 9ba8 013e 58c5 27be b3b4 a53d
00000090: d8eb 833e 7589 0fbf 014a 123e 7c9c 93be
000000a0: 8c1d c53e ffa4 b2bd fecc 853c b4f3 c6be
000000b0: 9a26 fdbd cf20 57bd d1f3 56be 362e debe
000000c0: 1c35 963d 7f90 9f3e 7a5b 533e 5064 9bbe
000000d0: b748 ff3d 6f76 3bbe a23a 00bf 8ca2 d9bd
000000e0: 24b8 e93c 0d34 a7be 8bc3 36be b1fb dabc
000000f0: 9faf f8bd 37d6 2fbe 55e0 d4be cbea 0bbe
00000100: 7007 303e fb75 9abe 2325 063e 085a c13d
00000110: 2d93 e1bd a0c4 14be b2e0 0cbe 4b7b 65be
00000120: ac3a 81be 3457 0e3e 25b0 243e 4ad3 1dbb
00000130: 271c c93d 7dd2 123e b131 85bd 962b 9abd
00000140: b85e 143e 7b6c 43be 5e9b 533c 5f42 59bd
00000150: 89fb e6bd 15f0 43bd 1d87 b23b 7c05 d73d
00000160: 73ca 573e 38b6 00bd f18b b6be 9814 a83d
00000170: 3462 9c3d 9980 03bf f76a 6ebe 6387 68be
00000180: f2af a3bd 8d7f c2be 6a08 2abf c59a c63e
00000190: 7cac f53e b874 c43e 4e0b 373e ec18 373e
000001a0: 4b5a fa3e b971 c7be fdd1 bbbe 3cf9 1abf
000001b0: 1bca 37be d135 c3be acc9 b0bd a9ac 0ebe
000001c0: 89b5 20be 142d 61bf 5649 62bf c565 86be
000001d0: c95f 483d 0628 22be 4f67 19bf 61c1 05be
000001e0: deec 6bbe a95c 0abf 2728 a8be 772c 1ebf
000001f0: f0b1 22be d16b 13be 84c1 6c3d 126e c13d
00000200: d0e1 3f3f c4ae eabc 2e91 3a3d d4c4 693e
00000210: efe4 e93d 717b ef3d a218 5fbe bd86 92be
00000220: c582 943e 745d a9be 4a6b c5be 4528 173e
00000230: 515b 24bf f075 cebd fad8 613b 69f6 0ebf
00000240: ad01 4fbe 44b1 1d3d a554 883d b8e7 5fbf
00000250: 7f91 2d3e aabe b9be c7c5 92be b15a 883e
00000260: 2945 e8be d147 77be 30fb bc3e 13ba 32bc
00000270: bb78 a0be e8e3 4c3d 7770 863e 032a b3bd
00000280: b17c 19be 5e18 9c3e e818 cbbe a55a bb3e
00000290: 437b 1e3d 3bd8 05be c931 72be d637 4a3f
000002a0: ccfc b53d 4e1e ecbe 25ab babe 6c59 f3bd
000002b0: 5da5 b03d 195a 863e c7eb ccbd d5ba 96bd
000002c0: 57c9 debe fc59 f53d 2fdf 8d3e 832a e5bd
000002d0: 0298 80be 071e dabd 15d4 203f 1eb1 983d
000002e0: 9780 65be 177a 16bf ae21 6f3e 0f03 8c3c
000002f0: 78e4 1abf f2a1 86be a2d6 78be 75dc 08bf
00000300: 4191 b4be decc 8abe 0fc3 0abf bfc4 cc3d
00000310: abec c4be 9970 00bf eb12 f03c 8b42 59bc
00000320: 90b1 3cbe 995f 15be 6995 67be ebd8 cdbe
00000330: bbff 873e fab5 81bd 8449 0f3e 0ac5 363d
00000340: 2ac0 353d fa4d efbe 6b8d dbbb 519a 82bd
00000350: 76ef 273e 6a71 1d3e 27a8 05bc ec4e 9fbe
00000360: 7616 91be a266 03bf bb34 25bf b675 473d
00000370: a87c 0abf 4896 11bf 1a4d 303e c499 adbe
00000380: 21da 37bf ba91 13be e872 88be a1d1 323d
00000390: eccc 573e 4b86 c4be 58aa afbe 4a8c ffbd
000003a0: a0e5 08bf f4d7 a3be cab9 ebbd abd6 713e
000003b0: 2735 a33e 0b8c f9bd b7fa 16be 3a0c e13e
000003c0: 0c7b 63bf 083d a0be 71d1 8e3e 38fa c6be
000003d0: 4936 ecbe 0976 80be e403 92be f789 07bf
000003e0: cbc5 11be 84cc 23be 1db2 efbe 8759 1dbe
000003f0: 9616 47be f41f 13be b848 86bd 89ed a7be
0.18282135 -0.2686894 -0.36281916 0.19633879 -0.20846274 -0.64475375 -0.16837986 -0.33510447
-0.23605745 0.075229764 -0.84529763 -0.0732533 0.37080517 -0.08684235 -0.6277275 -0.4577249
-0.31567934 -0.3844156 -0.02237616 -0.4430924 -0.24680768 0.063032456 -0.49863347 -0.07024873
-0.3116376 -0.54803187 0.06102245 -0.4264196 -0.9600813 0.017593175 0.07777993 0.26101804
-0.3490099 0.12661974 -0.16383874 0.08091106 0.25765872 -0.5606912 0.14286043 -0.28830326
0.38499105 -0.08722877 0.0163331 -0.38857806 -0.12360878 -0.052521523 -0.20991446 -0.4339463
0.073343486 0.3116493 0.20640364 -0.3034997 0.12465041 -0.18306898 -0.50089467 -0.106267065
0.028530188 -0.326569 -0.17848031 -0.026731344 -0.12142872 -0.1717156 -0.41577402 -0.13663785
0.17190337 -0.30168137 0.13100104 0.09441 -0.110144 -0.14528131 -0.1375759 -0.22410314
-0.25240076 0.13900453 0.16082819 -0.0024082237 0.09819823 0.14338107 -0.065036185 -0.075278446
0.14489257 -0.19084351 0.01291546 -0.053041812 -0.11278445 -0.047836382 0.0054482357 0.10499093
0.21073322 -0.031423777 -0.35653642 0.08207053 0.07635918 -0.513681 -0.23282991 -0.22707896
-0.07992543 -0.3798794 -0.6641909 0.38789955 0.47983158 0.383703 0.17875406 0.178806
0.48897013 -0.3895395 -0.36683646 -0.6053655 -0.17948191 -0.38126996 -0.08632216 -0.13933052
-0.1569425 -0.8795941 -0.8839315 -0.2624952 0.048919473 -0.1583558 -0.5992326 -0.1306205
-0.23039576 -0.5404764 -0.32843134 -0.617866 -0.1588819 -0.14396597 0.05780174 0.09444822
0.7495394 -0.028647788 0.04554861 0.2282899 0.11420619 0.116934665 -0.2178674 -0.28618422
0.2900602 -0.33079112 -0.38558418 0.14761455 -0.6420184 -0.100810885 0.0034461603 -0.5584474
-0.20215483 0.03849913 0.0665677 -0.8746295 0.16950034 -0.36278278 -0.28666517 0.26631692
-0.45365265 -0.2414849 0.3691039 -0.010908621 -0.3134211 0.050022036 0.2625768 -0.087482475
-0.14988972 0.3048734 -0.3966744 0.36592594 0.03869177 -0.13070767 -0.23651804 0.7899145
0.08886108 -0.4611687 -0.36458698 -0.1188229 0.086252905 0.26240614 -0.100059085 -0.07359854
-0.43512985 0.11980054 0.27709338 -0.11189749 -0.25115973 -0.106502585 0.6282361 0.074556574
-0.22412334 -0.58780044 0.23352692 0.017091302 -0.60504866 -0.2629543 -0.24300626 -0.5346139
-0.3526707 -0.27109426 -0.54203886 0.09998464 -0.38461813 -0.5017181 0.029305896 -0.013260494
-0.1842711 -0.14587249 -0.22615589 -0.40204558 0.26562294 -0.063335374 0.13992888 0.044621505
0.044372715 -0.4673918 -0.006700208 -0.0637709 0.16399941 0.15375295 -0.008157766 -0.311149
-0.2833745 -0.5132848 -0.64533585 0.048696242 -0.5409646 -0.56869936 0.17216912 -0.33906376
-0.71817213 -0.14411059 -0.26650167 0.04365695 0.21074265 -0.38383707 -0.3430965 -0.1247793
-0.5347538 -0.32000697 -0.11510046 0.23617046 0.3187649 -0.12184914 -0.14744078 0.4395464
-0.8885963 -0.31296563 0.27894166 -0.38862777 -0.46135166 -0.25090054 -0.28518593 -0.5294489
-0.14235608 -0.15995985 -0.46815577 -0.15366183 -0.1944221 -0.14367658 -0.06556839 -0.32798412

lrm.conv1.bias f4 [32]
00000000: 83c6 033c 1e2a 61be 434b d93d 80a9 d2bc
00000010: 0552 32be fa70 5cbe 4254 5dbe f392 2ebe
00000020: fb24 67be 4187 163e 05d4 b8bb 05cd 3bbe
00000030: a733 b1bb 2f72 afbb bf89 01be cfac 6bbd
00000040: 45d7 44be c646 cabd 6ebd c43d 40dd c63d
00000050: ab1a 0d3d df1d 31be e412 623d 00db 74be
00000060: 9f2e 6c3d 0352 57bb cceb 47be 5fb0 b3bb
00000070: d4df 78be 988d 72be 7f34 e6bb 9b5a 05bb
0.008042934 -0.21988723 0.10610058 -0.02571559 -0.174141 -0.21527472 -0.21614173 -0.17048244
-0.225727 0.14700033 -0.005640509 -0.18339927 -0.005407769 -0.005354188 -0.12650202 -0.05753785
-0.19222744 -0.0987678 0.09606443 0.09710169 0.03444926 -0.17296551 0.055193797 -0.23911667
0.05766165 -0.003285528 -0.19523543 -0.0054836716 -0.24304134 -0.23686826 -0.007025301 -0.0020348195

lrm.conv2.weight f4 [64, 32, 3, 3, 3]
00000000: 800f 85bd 76f5 6dbc aaf2 5b3c 43ff bdbc
00000010: a3c3 ae3d dc61 713b 1292 9bbc d98f 58bc
00000020: 057f 163d 8ef8 a1bd 16c9 92bd b2e9 54bd
00000030: d5c0 c4bc 8226 80bd b7e8 afbd 1ef6 40bd
00000040: 3289 2e3c b99e 393d 3cbd 70bc d1ab 71bd
00000050: 6565 b1bc b3dd 0a3c ee22 bebc 4f55 d5bb
00000060: 3dcc 9dbb fa6d 9a3c 02e1 d63d 42c5 2c3f
00000070: 9892 373f 753b 1b3f 5e52 0f3f 120d d63e
00000080: 4d04 243f 47ae 2a3f 76ef bc3e 5efc 353e
00000090: 25e3 143f ed4e 2b3f f07c aa3e 2a97 d33c
000000a0: 1bd2 bc3d 7c84 8a3e 9422 e23e d5ea 203d
000000b0: 1897 d9bd 484f a03e ec73 203f e82b 613d
000000c0: 0ef6 15be 5cf6 f7be dc9f 1ebf 48af 22be
000000d0: 0559 01bf e621 3bbf c136 8b3d 8990 293e
000000e0: ad72 673d e066 ad3d 5272 d93d d4fb bebb
000000f0: bc10 e63c de92 1b3d 4148 993d 730c 13bd
00000100: d35d b9bc 210c abbd 1be8 21bc b283 cc3a
00000110: 5886 b9bd 7bbc d03c 6a7c ee3c 2824 66bd
00000120: 5678 54bd 20b6 79bd 43c8 dd37 2faf 86bd
00000130: d948 77bd 34fe 13bd 0e83 c23c 1f0c 5cbc
00000140: dbdf f2bc cde0 993e 8088 c33e cf02 163e
00000150: 11e4 4d3e 40b6 0d3d 0c7a 6abc 1f5a 7f3e
00000160: c3ed efbd d00d 54be ff98 713e f7e3 bf3d
00000170: 2f87 1d3e 15f7 04be 4805 c1be 5b13 83be
00000180: ab06 18be 35b9 f0be 5308 bebe d650 53bc
00000190: da11 9fbe 2ece 113e c77a fabe 43ad 82bf
000001a0: 4ded 82be 23b6 89bd abbe 2ebf 6d58 e9be
000001b0: b8d3 0b3e 76d2 e43d 99b1 94bd 9274 023e
000001c0: ece2 b73d 671c edbc df5a 56bc 150f 843d
000001d0: 7609 7e3c 5bc6 5ebe 09e3 e0bd 6f71 1dbe
000001e0: d620 40be 23bc ef3d d4ff bcbd 8db3 9d3c
000001f0: b28a 703e 1870 f5bd ec24 c1be 7aee 53bc
00000200: d881 f0bd d710 37be b794 d13d 70a6 07be
00000210: 001e ba3d 890c aa3c 69d5 7dbe 2af4 6b3e
00000220: 3ca7 f4bd 7c4c 5ebd de75 4a3d f27a 16be
00000230: b14d e73d c8f7 c83d 9469 80bd dead 7d3e
00000240: 808e 5a3c 9407 0cbe d7e4 34be bd71 d0bd
00000250: b10b d9bd 47f1 1cbd 0fbe 8bbc e5fc 43b9
00000260: 1e57 c83d 2433 c4bd abe3 92be 1766 3abd
00000270: 9a09 69be 7d0c 2bbe 2bd1 31be c3b1 56be
00000280: 744c 313d ec6c aebe 0d8d d13e 9004 593e
00000290: ba0b c23d c65e 6c3e d83c a0bc 6b92 64bd
000002a0: 4b76 773e 35db 33be 0646 2cbe 01fd 5d3e
000002b0: 83c9 103e d5f0 3e3c 9f09 943d 82c8 7b3c
000002c0: 3234 ccbd bee4 f63d a4ab 82bd f50f b9bd
000002d0: bdd2 473d 379a 9a3d d2ad 99bd 8d06 6abe
000002e0: 7739 89bd d771 3bbe 6a3a 30be 3442 a9be
000002f0: 00ff 04be 4000 2bbe a0cd ba3d e2eb be3d
00000300: b8d3 063e 0b28 e73d 033a 6c3d 8fa6 a23e
00000310: 1cb3 523e 7a1a 9e3d 91b9 abbd 9af4 80bd
00000320: 7276 fc3c 62ce 9b3b 0546 8bbd 5fff 33b9
00000330: 8fbb b43d 7133 933d bd5b 2c3e 544b b93d
00000340: 5137 4bbe 8633 9d3c 766a b93d a45f 39bd
00000350: fcdd 0b3d c4ca 2c3d 41f3 8f3d ee9b 483e
00000360: fd82 923e 7fb7 793d 3aa2 cfbd 55f7 953e
00000370: ba3f 923d 8a21 3cbe bd00 3d3e 9bb4 883e
00000380: 5a19 c5bd c57b 8abb a79e e73d 4601 923d
00000390: 9838 ea3d fbc8 88bb 6ba7 04be 0fda c03e
000003a0: dc4a 473e 67e8 a9be 6bd0 76be a4bc c8bd
000003b0: f987 a83d 8daa adbe 5b56 b9be c035 50be
000003c0: bc72 633e 00ea 9abd 296e 62be 64fa 813d
000003d0: 3dcb f43d 7ef9 44bd fb7e c53d 52ae a73d
000003e0: a508 9fbd dc1a b23d 5799 093e e507 263d
000003f0: 72bc 17bd 051e 38bd ca64 f2bd ed01 86bd
-0.06497097 -0.0145238545 0.013424555 -0.023193007 0.085334085 0.003683201 -0.01899055 -0.01321789
0.03674223 -0.07908736 -0.0716726 -0.05198068 -0.02401773 -0.06257345 -0.08589309 -0.047109716
0.010652827 0.045317385 -0.0146935545 -0.059001748 -0.021654794 0.008475709 -0.023210015 -0.0065104137
-0.004815607 0.018851269 0.104921356 0.6748849 0.7170806 0.606376 0.5598506 0.41806847
0.6406906 0.66672176 0.36901444 0.17772052 0.58159095 0.66917306 0.33298445 0.025828917
0.09219762 0.27054203 0.44167006 0.039286453 -0.10624522 0.31310487 0.6267688 0.054973513
-0.14644644 -0.48430145 -0.61962676 -0.15887177 -0.5052646 -0.730986 0.06797553 0.16559042
0.056505848 0.084668875 0.10617508 -0.00582836 0.028084151 0.03798186 0.074844845 -0.035900544
-0.022627747 -0.08351923 -0.009881998 0.0015603213 -0.09058827 0.0254805 0.02911206 -0.056186825
-0.051872574 -0.060964704 2.6438507e-05 -0.06576382 -0.060372207 -0.0361311 0.023744132 -0.013430624
-0.029647758 0.30054322 0.3819008 0.14649509 0.20106532 0.034597635 -0.014311325 0.24936722
-0.11715271 -0.20708394 0.2359352 0.09369653 0.153836 -0.1298488 -0.37699342 -0.25600705
-0.14846294 -0.47016302 -0.37115726 -0.012897691 -0.31068307 0.14238808 -0.48921797 -1.0209125
-0.2557167 -0.06724193 -0.68259686 -0.45575276 0.13654983 0.11172955 -0.072604366 0.1273978
0.08978829 -0.028944207 -0.013083189 0.06448189 0.015505185 -0.21755354 -0.109808035 -0.15375303
-0.18762526 0.11705806 -0.09228483 0.019250656 0.23490408 -0.11984271 -0.37723482 -0.012935275
-0.11743516 -0.17877518 0.10233443 -0.13247085 0.09087753 0.02075793 -0.24788441 0.2304236
-0.1194596 -0.05427216 0.049428813 -0.14695337 0.11294115 0.098128855 -0.062701374 0.24773356
0.013339639 -0.13674766 -0.1766542 -0.10177944 -0.10597933 -0.038316038 -0.0170584 -0.0001869086
0.09782241 -0.09580067 -0.28689322 -0.045507517 -0.22757569 -0.16703983 -0.17364947 -0.20966248
0.043285802 -0.34067476 0.40927926 0.21193147 0.09474893 0.23083028 -0.019560263 -0.055803698
0.24166219 -0.1756409 -0.16823587 0.21678545 0.1413937 0.0116540985 0.072283976 0.015367629
-0.09970893 0.12055348 -0.06380394 -0.09036247 0.04878496 0.075489454 -0.07503857 -0.22854061
-0.06700414 -0.18305145 -0.17209783 -0.3305832 -0.129879 -0.16699314 0.09121251 0.09322335
0.13166702 0.112869345 0.05767251 0.317677 0.20576137 0.07719894 -0.08385003 -0.06296654
0.030818198 0.0047548274 -0.068004645 -0.00017165903 0.088248365 0.07187546 0.1683187 0.09047571
-0.1984532 0.019189607 0.09053509 -0.045257226 0.034147248 0.04218556 0.07028819 0.19590732
0.2861556 0.06096601 -0.10138364 0.29290262 0.07141061 -0.18372169 0.18457313 0.2670029
-0.09623976 -0.0042261803 0.113095574 0.07129149 0.11436576 -0.0041743494 -0.1295449 0.37666366
0.1946215 -0.3318512 -0.24102943 -0.09801605 0.0822906 -0.33919182 -0.36198696 -0.20333004
0.22211736 -0.07564163 -0.22112335 0.06346586 0.11952827 -0.048089497 0.0964336 0.08187546
-0.07765321 0.08696529 0.13437401 0.040534873 -0.03704495 -0.044950504 -0.1183563 -0.06543336

lrm.conv2.bias f4 [64]
00000000: 8d72 1b3d b707 5a3d 7a83 06bd 7a31 64bc
00000010: f624 c1bb f34d 693e 05bb 93bb 2546 51bd
00000020: e18e e03d 22ae 69bd db44 2cbd 8534 a1bc
00000030: 1826 54bd a32f 38bd c4ac 8ebd 4445 05bd
00000040: a2f1 23bc b83a dbbc b374 27bd deaf 603d
00000050: 8253 c93c 03d5 b13d e897 433d 738e 763d
00000060: cd20 e83c 08a1 8fbc 504d 833d 3ae3 db39
00000070: ddd6 d2bc b021 65bd 6639 1dbd 71ff 38bd
00000080: 3976 dbbc ed0b aa3c 9f69 823c ddc3 81bd
00000090: 1749 1abd fe3f e13d 61e6 ea3d 95ca 2d3d
000000a0: 0fef a83d 8fb2 6e3d 83c9 5fbd 737b 12bd
000000b0: 3834 94bd 8df2 24bd 124e 443e 4554 9aba
000000c0: 5ca7 8dbb 6140 b53d 401d 97bc d649 64bd
000000d0: a5d3 56bc adf7 693c d699 0ebd 3297 d63d
000000e0: c774 05bd 8d27 2ebd 4ae2 003d d025 413d
000000f0: d651 ad3d c772 25bd f376 1bbc b699 da3c
0.03795104 0.053230014 -0.03284023 -0.013927812 -0.0058942987 0.22783642 -0.0045083784 -0.051092286
0.10964752 -0.05705083 -0.042057853 -0.019678364 -0.05179414 -0.044967305 -0.06966546 -0.03253676
-0.01000634 -0.026761398 -0.040882777 0.05485522 0.024575952 0.08683207 0.04775229 0.060194444
0.028335953 -0.01753284 0.064112306 0.00041940232 -0.02573722 -0.05594033 -0.038384818 -0.045165483
-0.026789771 0.02075764 0.015919505 -0.06336186 -0.03766736 0.10998534 0.114697225 0.042429525
0.08248722 0.058275755 -0.054635536 -0.03576226 -0.072365224 -0.040270377 0.19170406 -0.0011774382
-0.0043229293 0.0885017 -0.018446565 -0.055734478 -0.013111983 0.014280242 -0.034814678 0.10478057
-0.03258207 -0.042518187 0.031465806 0.0471552 0.084628746 -0.040392663 -0.009488809 0.026684623

lrm.conv3.weight f4 [1, 64, 3, 3, 3]
00000000: fabe b73e 8e86 5d3d 85b5 283d a5b0 313e
00000010: 9cf0 9ebd c4ba 0dbe 3a2c 923d b603 72bd
00000020: ccf8 5ebe d5b5 963e 42a7 9c3d df41 6cbd
00000030: 843c 903d 3049 16be a763 83be 843b fc3b
00000040: 43c1 3ebe a8d4 82be fe1a 853e 0e0a 003e
00000050: d191 dd3b 3d68 de3c f825 d8bd f7d5 1ebe
00000060: 3319 03be cbd5 6dbe 2f79 2fbe 64e8 77bd
00000070: 950f 16be bcab eabd f640 b8bd 5aa9 29be
00000080: ceaa 48be e3bc b1bd 0a72 09be 41d3 36be
00000090: fa2f 4ebd edc4 66bc 1be9 acbd cba9 83bc
000000a0: 1c40 59bd f724 9dbd e88e 04bd 966f c7bc
000000b0: 6843 a6bd c297 253c 200e 8c3d 2794 4b3b
000000c0: 36e7 6d3c c94b f83c 54b0 6d3b 04b9 4fbc
000000d0: 51db 43bc 8bc6 22bd 3afc a6bc 0128 d8bc
000000e0: 56f5 f8bc df63 f63c 5ae3 513b 8c75 2dba
000000f0: 16d1 9a3c b38a 80ba 8876 a93c e8bb 06bd
00000100: 7c50 483c 1a66 1fbd f9ee 0bbc 5e43 a9bc
00000110: e2e4 99bc 554d 38bc ed46 143c ceb2 78bb
00000120: 0e76 b3bb 4669 8abc 0d76 26bd f8c1 8f39
00000130: 72b0 58bc 04ee 06bd b4f6 893c 2cef 0a3c
00000140: f4ea c23c 0cd2 223d 3af2 90bc 81ff fd3c
00000150: b02c d039 5bdc 3cbd 59be a73c b076 723d
00000160: b102 8f3c 6df1 b33c 92f4 623b fa05 8abc
00000170: f3ce ac3b 8701 483c 242c aebb e9fd 3c3c
00000180: 5432 903d d4fc 70bc 7883 b9bb af1e 87bc
00000190: cf9f 823c 46ea 95bc 7c56 163c 3c7b d0bb
000001a0: 7664 f8bc decd 773d 1ea8 d3bc 31ce d2bb
000001b0: d79f 67bf 5f44 24bf 1617 02bf b38f 29bf
000001c0: 31d1 35bf e4e5 19bf 2709 2ebf 6bca f1be
000001d0: ad24 aebe 8eed 0dbf 4ac9 95be a506 c9be
000001e0: ec82 84be 6aea 46be 4cf5 f3be 0e6f 18bf
000001f0: 25e9 17bf 1276 7cbf f670 35bf fcd1 98bf
00000200: abc7 c1bf 5af7 07bf e74d 6ebf d25a 98bf
00000210: 73a4 37bf 5246 35bf 8f96 89bf fd08 19bf
00000220: ebe0 63be 5ee0 00bf a816 11bf 2f93 d0be
00000230: cb4e f8be 41ea 37bf 3ce4 2cbf abb4 37bf
00000240: ad32 32bf 60c7 e4be 3a62 3ebf d8de 0cbf
00000250: 2179 dfbe 59ac 14bf eb4b 54bf 6fa6 50bf
00000260: 0afc 7bbf 97a8 39bf 9d69 51bf b088 64bf
00000270: b713 32bf 816f 40bf 4482 56bf bacc 30bf
00000280: 6898 63bf a9db 95bf 9031 9c3d dd70 273e
00000290: 93f3 b03d fdcb 03bd 1b9f 2f3e ba15 963d
000002a0: fb81 0cbe 811b d3bc ecf6 d2bb 97ec d3be
000002b0: 762e a7bd 66a4 96bd 68a1 3abe e030 9d3d
000002c0: bc39 0a3d 84e6 adbd d3e2 a73d 85bf 9b3d
000002d0: 1ae4 3cbf f4f6 99be 739e 7ebe 218b 28be
000002e0: 604f 683d 01b7 fe3d 66a3 d03d 9b75 c43d
000002f0: a212 053e e15d ffbc 4bd6 8b3c f780 003d
00000300: e7f1 81bc aa9b a7bb 38c0 cc3c 8efe b5bc
00000310: 4578 533c 9592 913c 94eb 0abd 8612 c1bc
00000320: 9476 c13c 2392 54bd 5548 fcbb ed79 f13b
00000330: a224 d7bc 2c3b 87bc 2b2d 203d c1f5 dabc
00000340: 5e58 6abc 1227 65bc 4afc 593b 377f d3bc
00000350: 3927 4a3c 0023 38bc 0330 21bc 66cb df3c
00000360: 9b48 983d 33cc 443e d477 c83e 2b36 adbd
00000370: 472e 483d 5af4 843e e300 3bbe b642 0f3e
00000380: a7d2 6b3e baeb 42be 686c 953d 282c eb3e
00000390: 7ed3 b1be 6157 1cbc e516 a33e f51c 04bf
000003a0: 742a 033d b087 903e f0cb 60be 1042 6dbe
000003b0: 6997 cb3e 0611 fbbe 2ff7 cbbe cb5a 843e
000003c0: dec1 38bf 2a0a d3be 7b0f 423e 91ac 29bc
000003d0: 4ae9 ab3b 30c6 e93c 4d62 f6ba e020 89bc
000003e0: 5ce7 603c d525 b13a 6801 563c a950 043c
000003f0: 83ff 5c3b bb14 c1bc 2bb2 163d a253 4f3c
0.3588789 0.0540834 0.041188736 0.17352541 -0.07760736 -0.13840777 0.07137342 -0.05908557
-0.21774596 0.29435602 0.076490894 -0.057680007 0.070427924 -0.14676356 -0.25661966 0.0076975245
-0.18628411 -0.2555287 0.25997156 0.12503836 0.0067617674 0.027149314 -0.10554117 -0.15511309
-0.12802581 -0.23226087 -0.17136072 -0.06052436 -0.14654382 -0.11458537 -0.08996765 -0.16568509
-0.19596407 -0.086786054 -0.13422409 -0.17854024 -0.050338723 -0.014085037 -0.08442899 -0.016072175
-0.053039655 -0.07673066 -0.03236285 -0.0243452 -0.081183255 0.010106983 0.06838632 0.0031063647
0.014520457 0.030309575 0.003626843 -0.0126783885 -0.011954145 -0.039740127 -0.020383943 -0.026386263
-0.030390423 0.03007692 0.0032026381 -0.0006616942 0.018898528 -0.0009806961 0.020686403 -0.032894045
0.01222622 -0.03891573 -0.008540862 -0.020662006 -0.018785898 -0.011248906 0.009050113 -0.0037948373
-0.0054767197 -0.016895901 -0.040639926 0.00027419603 -0.013225662 -0.032941833 0.01684127 0.008479875
0.023793675 0.039751098 -0.017693628 0.031005623 0.00039706146 -0.046108585 0.020476507 0.05919522
0.017457338 0.021965707 0.0034630639 -0.016848553 0.0052736937 0.012207395 -0.0053153206 0.011535146
0.07040849 -0.014708716 -0.0056614242 -0.016494123 0.015945343 -0.018300187 0.009175893 -0.006362347
-0.030321341 0.060499065 -0.025837 -0.0064332713 -0.9047827 -0.64166826 -0.50816476 -0.6623489
-0.71022326 -0.6011641 -0.67982715 -0.47224745 -0.34012356 -0.55440605 -0.29255134 -0.39262882
-0.25881135 -0.1942536 -0.47648084 -0.59544456 -0.59340125 -0.9861766 -0.7087549 -1.1939082
-1.5139059 -0.53111804 -0.9308762 -1.1902716 -0.71735305 -0.70810425 -1.0749072 -0.5977934
-0.22253768 -0.5034236 -0.56675196 -0.40737292 -0.48497614 -0.7184182 -0.6753576 -0.7176005
-0.69608575 -0.4468336 -0.7436863 -0.5502753 -0.43647102 -0.5807548 -0.8292834 -0.8150396
-0.98431456 -0.7252287 -0.8180178 -0.8927107 -0.6956133 -0.7517014 -0.8379252 -0.6906239
-0.8890443 -1.170766 0.07626641 0.16351648 0.08640208 -0.03217696 0.17150538 0.07328363
-0.13721459 -0.02576995 -0.006438127 -0.4139144 -0.081631586 -0.07355575 -0.18225634 0.07675338
0.033746466 -0.08491233 0.0819756 0.07604889 -0.73785555 -0.30071223 -0.24865131 -0.16459323
0.056716323 0.12437249 0.10187416 0.09592744 0.12995389 -0.031172695 0.017069956 0.03137299
-0.015862418 -0.005114992 0.024994 -0.022216108 0.012907092 0.017770091 -0.03391607 -0.023568403
0.023616113 -0.05189718 -0.0076990523 0.007369271 -0.026262585 -0.016507708 0.039105576 -0.026728513
-0.014303295 -0.013986366 0.0033261948 -0.025817497 0.012338453 -0.011238813 -0.009838107 0.027318668
0.074357234 0.19218521 0.39153922 -0.08457597 0.04887226 0.25967675 -0.18262057 0.13990292
0.23029576 -0.19035235 0.072960675 0.45932126 -0.34731668 -0.009542317 0.31853405 -0.51606685
0.03202291 0.2822852 -0.21952796 -0.23169732 0.39763954 -0.49036425 -0.39837024 0.2585052
-0.7217082 -0.41218692 0.18951218 -0.010356084 0.005246316 0.028536886 -0.0018797606 -0.016739309
0.013727035 0.0013515303 0.013061859 0.0080758715 0.0033721633 -0.023569455 0.036791008 0.012654217

lrm.conv4.weight f4 [32, 48, 3, 3]
00000000: 0f1b 5ebd 1129 61bd a554 60bd 9ba1 8bbb
00000010: 8974 cabb c4cd 203c 86f5 98bd 52c4 70bc
00000020: ce7e 09ba 2a35 9ebd 6409 25bd f599 64bd
00000030: 41b1 86bd 8d3a cabb 1b84 d2bc 6863 24bc
00000040: 40f7 5cbd bd0c 33bd 1b13 18bd 69f8 b6bc
00000050: 0db0 26bb 8ddb 57bd 25cf 1bbd ac7b 3dbd
00000060: fa0d 27bd 8906 49bd df5d b9bc 544d a2bd
00000070: 6e71 86bc 7d3e db3b a537 84bd 21d5 11bd
00000080: f6e3 4fbd 8dce 3a3c 3159 88bc 2052 59bd
00000090: 929e aabc 22f7 62bd 0a94 98bd f490 d3bc
000000a0: 3d5a 1f3c 102b 12bc 3c4e 79bc 3e9f b6bc
000000b0: b096 99bd fcb1 0cbd 89f7 abbc ac6e 7dbc
000000c0: 92d7 5cbd 1f7a 87bd 1a7d c5bb 2026 ad3b
000000d0: 13a0 16bd 5513 99bd 7de5 4c3c 8082 15bc
000000e0: 31c2 03bb 3cad 8fbd cc77 96bd 55d6 debc
000000f0: f795 85bb 63a4 a3bd bb5b 89bd cc1e 18bc
00000100: 1779 9fbc 9427 6fbd b24c 6abd a5e8 00bd
00000110: 6fa7 43bb ca0a 0cbd 9dd2 90bd 90a8 69bd
00000120: 47b5 29bd b2df a0bd 3cee 91bd 557c 68bd
00000130: 0575 1d3c d965 98bd 883b 8cbd db89 08bd
00000140: bcdf 7ebc 4b59 803c b4b7 a3ba f171 93bd
00000150: b37b d5bc b80d 60bd 294c 0cbd dd1a 57bd
00000160: 6575 80bd 15aa 21bd 5cbb 703c 688e 81bd
00000170: a0e0 70bd 7684 75bd 6062 43ba da97 80bd
00000180: 0657 70bd 9172 67bd a86a 143c a0a9 66bc
00000190: 4dc5 a2bd b8ef 5abd a54e 84bd 4865 93bd
000001a0: b793 8dbd 915c cd3b 4b39 8ebd 9040 8bbd
000001b0: c422 f83b b20d 8bbd 856d 2fbc fa8f 4bbd
000001c0: 06cb 8bbc 97e1 93bd 383f 143c fbbf 913a
000001d0: f9ff 0cbd 654a 72bd 5b8e 47bb db4c 9bbd
000001e0: 4def 523c 2f88 87bd 01aa 69bd 4676 48bd
000001f0: 35f5 4abc 8838 8dbd dbd0 08bc 9636 3ebd
00000200: 3119 63bd 4b79 423b 3c73 3fbb fa50 b3bc
00000210: e58c c5bc e1ee 11bd 58e9 10bc 4d82 e7bc
00000220: 5a06 96bc a2ec 57bc 34e6 a2bd f221 9abd
00000230: 7b34 09bd e8db 94bd 2bd8 94bd 5f93 afbc
00000240: 26e6 a2bd 18a2 a2bd 792e 47bd d202 5dbd
00000250: a581 92bd 9546 f0bc 3ef6 1ebd f1e8 e53b
00000260: 4e51 4d3c b5e8 4fbd 7d54 21bc 6bf2 77bd
00000270: 0475 c8bc 625b 35bd 3fb5 42bd 5d31 82bd
00000280: ea75 16bd 4fdc 39bd cd35 a2bd 3c51 a0bd
00000290: 6907 a1bd 6235 15bd b6d7 9cbd dfaf 6bbd
000002a0: bd2c 0ebd 3783 d1bc 9753 003c a6c3 423c
000002b0: db28 1c3b 7596 1bbc 2b9f 69bc eeec f6bc
000002c0: b07d 0bbd 7fbf b2bc 9dbe 12bd 9101 88bd
000002d0: 94c0 4b3c 7948 58bd a2a9 86bd e4d6 7fbd
000002e0: a80c 153c 8366 8fbd 8edc 353c 6ad1 7c3c
000002f0: 0994 95bd 65e1 19bc 2425 3bbd f6ce ecbc
00000300: af86 7ebd 0d94 8cbd 78c3 91bd 232c 79bd
00000310: 0c88 eebc 7e65 0e3b 7c72 593c aa2e 7bbc
00000320: c614 c2bb 5ebd 30bd 3afb 60bd 3bb6 b1bc
00000330: 1df6 4dbd a25c 9abd 11f1 32bd 510e b93b
00000340: 01de 2bbc 7adf 5c3a ed47 92bd 1d94 cdbc
00000350: d23b 793a 21a8 4abc a8ca 87bd 0baf 48bd
00000360: b5a1 f93c 09ed 533d 58f3 f6bc 404e 0cbd
00000370: 0ee6 2abd 54db b73b 19c4 96bd a81d 36bc
00000380: e020 c8bc fd51 63bc 5481 8a3d 3415 83bc
00000390: 7396 9ebd 1446 80bc fb42 45bd fc85 4dbd
000003a0: 857b ed3a 22f3 23bd 5af2 84bd 090d babc
000003b0: 9905 7fbd 799a 82bd c0f1 58bd fb9b cf3b
000003c0: 0474 193b 0feb ecbc be62 5fbd 4a64 2e3c
000003d0: 99b5 cebb 34f4 553c d112 12bb 5d9a ad39
000003e0: 3368 42bd b681 353b 9450 3ebb 3396 4dbd
000003f0: 1523 b8bb efbf 12bd 22c7 09bd 544f 26bc
-0.054225024 -0.054970805 -0.054768223 -0.004261208 -0.006178443 0.009814683 -0.07468705 -0.014695244
-0.00052450306 -0.07724984 -0.04029216 -0.055810887 -0.06576777 -0.0061715306 -0.025697758 -0.010033466
-0.053946733 -0.04371332 -0.037127595 -0.022335248 -0.0025434524 -0.052699614 -0.038039345 -0.04626052
-0.040784813 -0.049078498 -0.022627769 -0.079249054 -0.01641151 0.006690799 -0.06455926 -0.035603646
-0.05075451 0.011401785 -0.016644092 -0.053056836 -0.020827565 -0.055411465 -0.07450111 -0.025825955
0.009726104 -0.0089214 -0.015216406 -0.02229273 -0.074994445 -0.034349427 -0.020992057 -0.015468281
-0.05391652 -0.066150896 -0.006026876 0.005284086 -0.036773752 -0.074743904 0.012505886 -0.009125352
-0.002010476 -0.07015464 -0.07347068 -0.02720181 -0.004076715 -0.07990339 -0.06706949 -0.009284686
-0.01946692 -0.058387354 -0.05720205 -0.031471867 -0.0029854437 -0.034189977 -0.07071421 -0.05704552
-0.041432645 -0.078551665 -0.07125518 -0.056759197 0.009610419 -0.07441301 -0.06847292 -0.033334594
-0.015556272 0.015667578 -0.0012490661 -0.07199467 -0.026059961 -0.054700583 -0.03425232 -0.052515853
-0.06272391 -0.039468843 0.014693107 -0.0632599 -0.05880797 -0.059940778 -0.00074533187 -0.062789634
-0.058676742 -0.056505743 0.009058632 -0.014078528 -0.079477884 -0.05345127 -0.06460313 -0.07197052
-0.0691294 0.0062671383 -0.069445215 -0.06799424 0.0075725038 -0.067897215 -0.010707264 -0.049697854
-0.017064583 -0.07220762 0.009048276 0.0011119837 -0.034423802 -0.05915298 -0.003044984 -0.075830184
0.012874437 -0.06617772 -0.057046894 -0.04894092 -0.0123875635 -0.06895548 -0.008350576 -0.046438776
-0.055443946 0.0029674347 -0.0029212972 -0.021889199 -0.024115035 -0.035628203 -0.008844696 -0.028260374
-0.018313576 -0.013178976 -0.07954064 -0.07526006 -0.033497315 -0.07268506 -0.07267793 -0.021432577
-0.079540536 -0.07941073 -0.048628304 -0.053957768 -0.07153634 -0.029330531 -0.038809054 0.007016294
0.012531592 -0.050759036 -0.009846804 -0.060533922 -0.02446986 -0.044276603 -0.04753613 -0.063570715
-0.036733545 -0.04537612 -0.07920418 -0.07827994 -0.078627415 -0.036427863 -0.07658331 -0.05754077
-0.034710634 -0.025575263 0.007832429 0.011887467 0.0023828063 -0.009496321 -0.01425914 -0.030142274
-0.03405541 -0.021819828 -0.035826314 -0.06640924 0.012436051 -0.05280349 -0.06575324 -0.062460795
0.009097256 -0.070019744 0.011099948 0.015430788 -0.07303626 -0.009392117 -0.045689717 -0.02890728
-0.062140163 -0.06864176 -0.07117361 -0.060833108 -0.029117607 0.0021727975 0.013271924 -0.01533095
-0.0059228865 -0.043149345 -0.05492709 -0.02169334 -0.05028354 -0.075371996 -0.04368693 0.0056474586
-0.010489942 0.00084256346 -0.07142625 -0.02509504 0.000950751 -0.012369187 -0.066304505 -0.04899506
0.030472616 0.051739726 -0.030145332 -0.034254313 -0.041723303 0.0056108627 -0.073616214 -0.011115469
-0.024429739 -0.013874528 0.06762949 -0.016001321 -0.0774354 -0.015658416 -0.04815958 -0.050176606
0.0018118477 -0.04002679 -0.064915374 -0.022711294 -0.062261198 -0.063771196 -0.052964926 0.006335733
0.0023415098 -0.028920678 -0.054537527 0.010644028 -0.006308269 0.013058711 -0.0022289047 0.0003311214
-0.047462653 0.0027695722 -0.0029039728 -0.05019207 -0.0056194165 -0.035827573 -0.033637173 -0.010150749

lrm.conv4.bias f4 [32]
00000000: 6b8d 4dbd a8e3 9dbb 66c1 10bd ab46 0bbd
00000010: 375e 24bd 9331 1ebd d373 8dbd 9e78 0cbd
00000020: 489d 86bd 5866 8c3e a308 05bd 738d 41bc
00000030: d94c 8d3e a63b 03bd cf76 1bbd 25d1 83bc
00000040: 3272 3c3d bbda 86bd 9443 08bd 1856 84bd
00000050: 40e0 8bbd 02c2 fabc 6b7d 80bd effc b7bc
00000060: c972 c6bc 2d7b 23bd 38f5 05bd 5f6a 55bd
00000070: 271a aebb 9990 5abd 2e2b 8fbd 7946 14bd
-0.050183695 -0.0048183985 -0.03534069 -0.03400294 -0.040128913 -0.038621496 -0.06906857 -0.034294717
-0.06572968 0.27421832 -0.03247894 -0.011813509 0.27597693 -0.032039307 -0.0379551 -0.016090939
0.046007343 -0.06584688 -0.033267573 -0.064617336 -0.06829882 -0.030610088 -0.062739216 -0.022459475
-0.024224656 -0.03991239 -0.032704562 -0.052103397 -0.005313176 -0.053360555 -0.06990658 -0.03620002

lrm.conv5.weight f4 [1, 32, 3, 3]
00000000: 98a3 26bd 78ed abbc 2864 803b 8fb5 e9bc
00000010: e1b5 2dbb 0fbc 253c f44b 59bc cce9 6cbc
00000020: 1034 883a bf73 cabc 0936 c5bc 4d33 863c
00000030: 7dbd 423c d8dd 63bc 4b3d 00bd e95a a6bc
00000040: c202 233d 204b 273b 4b9b 36bc 4b04 b5bc
00000050: a92b 6b3d f1ce ae3b f17f 6e3c 8466 f5bc
00000060: 3165 14bd 29c8 37bd 2471 9abd ee93 ac3a
00000070: d6d8 0739 8ac8 523d a4ed d0bc a537 5abd
00000080: 290a 57bc 73fc 9cbc 9be7 bb3c 77d8 4ebc
00000090: 7843 66bd b0d9 1ebd aead 5f3d 8e52 e13c
000000a0: 4c72 45bd 6c24 5bbd eb1e dd3c 5395 2f3d
000000b0: e556 86bc 365b 713c 3ffa 1bbc 498c 57bd
000000c0: 0b9d 8e3c aa1f 763d 722e 4ebd 478f 35bd
000000d0: a8e6 343d e80c 91bc b839 273d b482 3dbc
000000e0: 6012 72bc 20d4 4b3c a876 15bd 271e 993b
000000f0: a436 24bd bac0 26bb 2dea 22bd c0c2 bb3a
00000100: bfa5 e8ba 1430 5ebb a1b6 8fbd 3333 26bc
00000110: 5345 afbb aa86 79bd 1fbf 7e3d f5d7 043d
00000120: 15b1 823d 7f33 283c 926c 2b3d 5948 a6bd
00000130: dcb1 9b3a 81d3 163c beec 12bd 063a c9bd
00000140: 1bef 593b c4d4 a93c 85da 2e3d 6e0f bebc
00000150: dc86 a03d 9ac0 a23d 5075 84bc add4 9c3d
00000160: 7884 843c cb40 493d e6e3 16bc a4ad 393d
00000170: d097 03bb fdce 94bc 7a56 153d e8ac e83c
00000180: d13d 75bd 1b17 61bb cf6b 0abd ca69 b13c
00000190: c6b0 463c da49 083d 958a 363d 3503 963c
000001a0: 29f8 513a 0dea 86bc a66b 423d f77c c93b
000001b0: f69d 3ebd 15dd 10bc b80e 783e 2816 a13c
000001c0: e561 aebd a14b c23d 3662 2ebc ec18 3ebe
000001d0: 7992 e23d ed83 67bd 3edb 123d fa4a 013d
000001e0: 23b7 15bd 8da4 103c 8e09 6a3d 6ce6 7abd
000001f0: aeee 71bd 92ee 463d 5deb 08bd bb9d df3c
00000200: ba8a 4bbd d774 223d 696b 38bb af3b dd3c
00000210: 8ff2 77bd 337f 263d 9d3e ffbc 6ad1 95bd
00000220: 502f 0cbd 82ef 80bd 610f 8c3c 8aa1 f83b
00000230: 886d 16bd a39b 113d a0b6 ffba 7755 94bd
00000240: b57d 213c 4bf5 35bd 1fe4 8cbc 3861 903a
00000250: 1786 6a3c 23ec a03d 02bc de3b d82c 3dbd
00000260: a568 913d 2411 103d 2bbb 9bbc e354 21bc
00000270: 95aa a7bb 8298 8ebd 98db f93c 8612 23bc
00000280: 4014 8ebc 4912 50bc 6b5e 86bc 5535 5a3c
00000290: 801e a6bd eada a3bc 6fab 84bc c8c1 eebc
000002a0: 4b53 87bd 05ef d3bc e7f8 f23b 419c 5c3d
000002b0: b327 05bc ba11 1cbd c382 13bd c8cd f53c
000002c0: 108e c0bb f648 c73c 689a 83bc aacc 493d
000002d0: e683 b3bc cdb6 20bd da6a ddbc b2fd 32bd
000002e0: 81e8 743c 7e39 0abd e8b0 e8bc 15c1 aebc
000002f0: 13ca 363d 706a ce3b 6448 173d 043f 73bd
00000300: 50fe 5fbd ec60 6f3c bd68 e0bc a263 4dba
00000310: c33e 183d e70c b03c f7c5 f4bc 2e44 2fba
00000320: 96be 9bbd 0904 57ba 8cdd ce3c f940 8fbd
00000330: 6a2f 6f3c 5e45 94bc aedd a23c a2b4 ad39
00000340: 19d8 0e3d 4fe6 593a ae89 47bd 5c43 4f3d
00000350: 38d2 09bd dba4 50bd e0a0 a33c ed30 4f3d
00000360: 2e76 5abd 4f23 0fbb 5760 15bd 672b 3c3d
00000370: 816c ddbc f221 77bc a3dd c53c 0072 0f3c
00000380: 3edb 5c3d 4dca 71bc 30ce 94bb fdd8 7ebd
00000390: 871e d63b 0b0d bebc cd6e d53c 9078 a6bd
000003a0: 291c 83bd eaaa c7bc e9ae 1d3d 5771 013d
000003b0: 77b6 2cbd d37d 39bc e91e 70bd 82b8 54bd
000003c0: 72ee 4fbc fe4a 633c eabf ae3c 814f bfbc
000003d0: 9c4d 803d 8a47 b33c 9f66 a03b 912a 0dbd
000003e0: c786 8dbc e984 9cbc ae54 1dbd d799 10bd
000003f0: b854 adbc 067d 5abd 243a 6d3d 1151 093d
-0.04068336 -0.020987257 0.0039181896 -0.028528957 -0.0026506113 0.010115637 -0.013262738 -0.014460038
0.0010391492 -0.024713395 -0.024073618 0.016381884 0.011885998 -0.013907872 -0.031308454 -0.020307021
0.039797552 0.0025526956 -0.011145423 -0.022096774 0.057414684 0.005334728 0.014556871 -0.02995611
-0.036229316 -0.044868622 -0.07541111 0.0013166645 0.00012955381 0.05146078 -0.02550394 -0.053275723
-0.013124981 -0.019163346 0.022937587 -0.012624851 -0.056216687 -0.03878182 0.054608993 0.027505185
-0.048204705 -0.05350153 0.026992282 0.042867016 -0.016398856 0.014731219 -0.009520113 -0.05262402
0.017408868 0.06008879 -0.050337262 -0.044326093 0.044165283 -0.01770635 0.04082653 -0.011566807
-0.014774889 0.012440711 -0.036490113 0.004672784 -0.04009117 -0.0025444464 -0.03977411 0.0014325008
-0.0017749591 -0.0033903169 -0.070172556 -0.010144043 -0.0053488403 -0.06091944 0.062193986 0.032432515
0.06381432 0.010266184 0.041851588 -0.08119268 0.0011878568 0.0092057 -0.035870306 -0.0982552
0.003325409 0.020731337 0.042688865 -0.023200717 0.078382224 0.07946892 -0.01616922 0.07657752
0.016176447 0.049134057 -0.009209609 0.045331612 -0.00200795 -0.018165106 0.036459424 0.02840276
-0.059873406 -0.0034346047 -0.03379422 0.02165689 0.012127107 0.033273555 0.044565756 0.018312076
0.0008009696 -0.016469026 0.047465943 0.00614893 -0.046537362 -0.008841773 0.24224365 0.019663885
-0.08514766 0.09487081 -0.0106435325 -0.18564194 0.11063094 -0.0565223 0.035853617 0.031565644
-0.036551606 0.008828294 0.05713802 -0.061254904 -0.059065513 0.048567362 -0.033427585 0.027296891
-0.049692847 0.03966221 -0.0028140193 0.027005998 -0.060534056 0.04064865 -0.031157786 -0.07315333
-0.03422481 -0.062956825 0.017097177 0.0075876163 -0.03672555 0.035548817 -0.0019509383 -0.072428636
0.009856631 -0.044423383 -0.01719862 0.0011015302 0.014314196 0.078575395 0.0067973146 -0.046185344
0.071000375 0.035172597 -0.019010147 -0.009846899 -0.0051167705 -0.06962682 0.030500218 -0.009953147
-0.01734364 -0.012699672 -0.016402444 0.013318379 -0.08111286 -0.020001847 -0.016195027 -0.029145136
-0.06607684 -0.02587081 0.0074149254 0.053859953 -0.008127141 -0.038102843 -0.036013376 0.03000535
-0.00587631 0.024326783 -0.016064838 0.04926745 -0.02191348 -0.039236832 -0.02702849 -0.043698974
0.014948011 -0.033746235 -0.028404668 -0.021332303 0.044626307 0.0062993094 0.03693427 -0.05938627
-0.05468589 0.01461051 -0.027393693 -0.0007834976 0.03716923 0.021490527 -0.029879553 -0.000668588
-0.07604711 -0.00082022004 0.025252126 -0.069948144 0.014598707 -0.018099483 0.019881096 0.00033131713
0.034874056 0.0008312212 -0.048715286 0.05060135 -0.033647746 -0.05093847 0.019974172 0.05058377
-0.05333536 -0.0021841114 -0.03646883 0.04593983 -0.027029278 -0.015083777 0.024153536 0.008755207
0.053920023 -0.014757705 -0.004541181 -0.062218655 0.006534401 -0.023199579 0.02605381 -0.08128464
-0.064018555 -0.02437349 0.038496885 0.03160223 -0.0421662 -0.011321503 -0.05862323 -0.051933773
-0.012691127 0.01387286 0.021331746 -0.02335334 0.06264803 0.021884698 0.004895046 -0.034464423
-0.01727618 -0.019106345 -0.038410835 -0.035302963 -0.021158561 -0.053341888 0.057916775 0.033524577

net.conv1.weight f4 [16, 2, 3, 3]
00000000: 12dd 08be 0ec2 343e 1bf8 30be ec71 2f3e
00000010: 87a1 1cbe 4a7e ae3c 12fd 4dbc 06c2 72be
00000020: 2c3b fb3d 1eea 1f3e 617a 303d d130 1abc
00000030: 9284 3bbe 7ec8 5dbe 432a 08be 75fb e0bc
00000040: 67c9 4fbe d09a 7cbd db39 953d d59b d4bd
00000050: 545c 263e e450 b73d c676 3d3e c96e 313e
00000060: 434f 01be 4934 e33d cf11 b5bd a1fa 41be
00000070: 4439 20be b921 4cbe 55ce 9b3d 8f5d 4ebe
00000080: 2f22 cdbd 4e2f 26be ba54 8bbc dba7 9fbd
00000090: e909 34be 8aa9 cf3d b889 7f3d e88b 373e
000000a0: e3a7 743d bd47 913e 6425 a0be b7ef 4cbe
000000b0: 2b89 68bc f089 46be d87a 0ebe 6ae3 3b3d
000000c0: f8f5 1e3e 8ac2 04be b077 d43d a074 0f3e
000000d0: 8bdb bc3d 72f2 e5bd f977 8d3e 9302 32be
000000e0: f772 6dbe ded2 793e f083 70be 1c89 95be
000000f0: 4f4f 823e 03a2 4e3d f892 273e d2d2 743d
00000100: 9f80 dc3c 8603 6e3c 4fe7 e13d 8430 303e
00000110: 8687 27be 88c6 d5ba 5ad7 0fbe e4e6 fa3d
00000120: c55f 73bd b974 9d3d 84be 20be 8062 223d
00000130: c67e afbd 6018 49be 9f14 403d c9c4 683e
00000140: d53e 283e 7851 473e be5a af3d 832f c9be
00000150: 9b21 9ebd 6cbd 253e d948 3cbe cd93 943d
00000160: 5c81 abbd 9084 6bbe 15f7 523e c8fa 983e
00000170: 5301 533e e47f 343d 5516 0cbe 3d2e 433e
00000180: 06a4 5dbd dbdb 1bbe caaa 15be 510b 23be
00000190: 887c c13d 3700 9abe 5f03 283c 034a 1dbe
000001a0: dff6 17be 75e9 2ebc d774 13bc cfe7 a1be
000001b0: 212e 183d 3252 09be dc73 013d 2711 05bd
000001c0: d684 2d3e b268 79bd 4702 123e 6a09 65be
000001d0: 12e8 32be a131 493e 6d14 433e da7b 56bd
000001e0: a620 7b3d 1d07 cdbd b77a 45be b7c9 853e
000001f0: 1d07 02bd 0670 553e 3e32 cf3d b314 633e
00000200: 0cb4 483e cfcd b1bd 2636 c8be 73bf bbbe
00000210: e5c3 4bbe a99f 9f3e 8e2a 853b 4028 eb3d
00000220: 3e27 ef3d f81e c13d 1500 113e 6c8f 543e
00000230: 0db6 6d3d 85cc 073c bfcd 3c3e c343 2ebe
00000240: 3d1b 89bd cfe3 813d 19e3 13bd 49e4 94be
00000250: ddea 49bc ed69 023e 61f2 b9be f386 3a3e
00000260: 904a 2cbe 713d 523e da7c 1dbd 6aab 363d
00000270: 0098 913d 7ac4 32b9 a0d5 be3e be34 f83e
00000280: 7b5f 303e a3cc bb3e cf6a 753e ac9e 1abd
00000290: 00bb 2e3e 8131 a3bd 6fb1 f23c e058 61be
000002a0: 996f b5bd 5fc1 f1bd 7f72 8e3e f8c5 a3be
000002b0: e206 78bd 0f1b 02be 22bf 073d 7660 aa3d
000002c0: 9427 53be 1f32 03be c3a0 a1be e95c 2c3d
000002d0: 3859 a9be fcf1 23be 4dfe 96be dfa4 48bd
000002e0: c315 9a3e 6844 0f3e 9809 c43c 2f02 0e3e
000002f0: 5408 9ebd 0fb8 58bc 9f3d 0fbe 6167 6fbe
00000300: 72e0 80be e231 e7bd 23ec 3f3e 9f66 023d
00000310: a88a 163e b0b2 a7bd eacc 813e cf38 52be
00000320: 27aa fdbd ef3c b03e df0b acbd d771 e9bd
00000330: f50c 713e 8b06 67be 5d9e 5a3d d60f d1bd
00000340: ef9a f93d 0c40 31be d5aa e93d 0f3c c83d
00000350: 5135 ff3d 8325 ba3d ee67 f5bd 2580 d83d
00000360: 161f d6bb 6916 f7bc 53ec 38be 92e5 f03c
00000370: 94a2 6538 4c8a ab3d d53f c6bd 0b04 43be
00000380: 33ec a73d 737d d6bd 1931 143e 6cff 16be
00000390: aafe 63bd fb50 dabd 4272 43be 774a fc3d
000003a0: 2b53 6abe c3e8 4bbe 65ce a4bb dae0 febd
000003b0: aa93 123e f106 c2bd 411e 99bd 5e07 6cbe
000003c0: 4789 8d3d 1274 7dbe 1e2f 62be b00e 9f3e
000003d0: a4ba 363e 2d53 603e e82d 673e acd4 423e
000003e0: 931f dbbc 7ca4 a23d f568 1abe 737a 213e
000003f0: b391 1cbd ef5e 1b3d 95f8 15be 9164 883e
-0.13365582 0.17652151 -0.17282145 0.17133301 -0.15295993 0.021300454 -0.012572544 -0.23706827
0.122671455 0.15616652 0.04308546 -0.009411053 -0.1831229 -0.21658513 -0.13297372 -0.027463654
-0.20291673 -0.06167108 0.07286426 -0.10381285 0.16246158 0.089509755 0.1850234 0.17327417
-0.12627892 0.11093957 -0.08841287 -0.18943264 -0.15646845 -0.19934739 0.07607714 -0.20152877
-0.10016286 -0.16228983 -0.017008174 -0.07795688 -0.17581905 0.10139759 0.0623872 0.17924464
0.05973042 0.28375044 -0.31278527 -0.20013319 -0.01419286 -0.19388556 -0.13914049 0.045871176
0.15523517 -0.12964836 0.10374391 0.14009333 0.09221562 -0.112278834 0.27630594 -0.17383794
-0.23188387 0.24396846 -0.2348783 -0.2920617 0.25451133 0.050447475 0.16364658 0.059771366
0.0269168 0.014527207 0.11030447 0.17206007 -0.16360292 -0.0016309777 -0.14046994 0.1225107
-0.059417505 0.07688279 -0.15697676 0.03964472 -0.08569102 -0.19638205 0.046894666 0.22731318
0.16430219 0.19464672 0.085622296 -0.3929406 -0.077212535 0.1618554 -0.18387164 0.07254753
-0.08374283 -0.22999787 0.20602067 0.2987883 0.20605974 0.04406728 -0.13680394 0.19060607
-0.054111503 -0.15220587 -0.14615932 -0.15922286 0.094475806 -0.3007829 0.01025471 -0.15360264
-0.14840268 -0.010675778 -0.009000025 -0.31622168 0.037153367 -0.13410261 0.031604633 -0.03248706
0.16945204 -0.06089086 0.14258681 -0.22366872 -0.1747134 0.19647838 0.1905076 -0.052364208
0.061310433 -0.100111224 -0.19285093 0.2613046 -0.031745065 0.20843515 0.10117005 0.22175865
0.19599932 -0.08681833 -0.39103812 -0.36669502 -0.19898947 0.311765 0.004063911 0.114822865
0.11677407 0.09429735 0.14160188 0.20757836 0.058034945 0.008288507 0.18437861 -0.17018037
-0.066946484 0.06342279 -0.03610525 -0.29080418 -0.012324062 0.1273572 -0.36317733 0.18215542
-0.16825318 0.2053125 -0.038449146 0.044597067 0.0710907 -0.00017048596 0.37272358 0.4847774
0.17223923 0.36679563 0.23966525 -0.037748978 0.17063522 -0.079684265 0.029625623 -0.2200656
-0.08859176 -0.11804461 0.2782173 -0.31986976 -0.06055344 -0.12705635 0.033141263 0.0831918
-0.20620567 -0.12812088 -0.31567964 0.042080794 -0.3307588 -0.16010278 -0.2949089 -0.04898536
0.30094728 0.13990939 0.023930356 0.1386802 -0.07716432 -0.013227477 -0.1398835 -0.2337928
-0.25171238 -0.11288811 0.18742423 0.03183615 0.1470133 -0.08188379 0.2535165 -0.20529483
-0.123859696 0.3442149 -0.08400702 -0.11398666 0.23540099 -0.2256109 0.053373683 -0.102080986
0.12187754 -0.17309588 0.11409537 0.0977708 0.12461341 0.09089186 -0.11982714 0.10571317
-0.0065344675 -0.030162053 -0.180589 0.029406343 5.4749267e-05 0.083759874 -0.09680144 -0.19044511
0.08199348 -0.10473146 0.14471854 -0.14745873 -0.05566279 -0.10659977 -0.19086555 0.123188905
-0.22883289 -0.1991301 -0.005029487 -0.12445231 0.14314142 -0.0947398 -0.074764736 -0.23049685
0.06910949 -0.24751309 -0.22088286 0.31065893 0.17844635 0.21906729 0.22576106 0.1902644
-0.026748454 0.07941529 -0.150791 0.15769367 -0.038224887 0.037932333 -0.14645608 0.26639226

net.conv1.bias f4 [16]
00000000: 7685 a6be adac 1dbf c727 2fbe 7200 ddbe
00000010: baaf ab3e 1e63 e4be 3ab6 e5bd acae 16be
00000020: 103d 403e 18e0 a2be 50f0 90be 4594 b5bd
00000030: 5407 cabd 0d93 073e f8e5 efbd 1a68 b63d
-0.32523698 -0.6159161 -0.17105018 -0.43164402 0.33532506 -0.4460687 -0.112163976 -0.1471507
0.18773293 -0.31811595 -0.28308344 -0.08866171 -0.09864679 0.13239689 -0.11713785 0.089065745

net.conv2.weight f4 [32, 16, 3, 3]
00000000: 2c38 c1bb c339 7f3d 2383 a5bc 2121 023e
00000010: ed85 ec3d 1c8a 98bd 46e9 963d d74a 9cbd
00000020: a47e 8b3c eb39 c43d fed0 8e3d 5f7f 043e
00000030: 5b5a 02be 57db 2e3d 5fce 073e 56cb 7b3d
00000040: 6215 223e 9cef 153e eb8e 433e 67ce 643d
00000050: 573f 18be 223d 843e 2514 b53c b77f 54be
00000060: db7b f83e 8cda 653e 8c85 033e 305e eebd
00000070: e8b4 1dbe 7a36 1dbe 7e6a 653e ebd2 b83e
00000080: ba2f 723d 0909 9bbc cc7c d4bd 9572 3dbe
00000090: 02a7 d03d c806 913d 9ea5 2a3e b4b6 26be
000000a0: 5481 8abd 4d5a 36bd f6fd 153d d21a cb3d
000000b0: 9040 8f3e 4172 91bc caa3 d73d 7e52 6abd
000000c0: c50e 58bd 1b8e bd3d 86bd fd3c a2b6 bfbd
000000d0: 9d7d 04bd d988 313e 843b 45ba 60d2 783d
000000e0: 71cc b1bd 7822 42be 0fae 76be b6b0 ae3d
000000f0: 53de 6fbc bb4d 073e dd88 153e f242 5fbe
00000100: a390 78be d0a3 94bd 2a90 e23e 23e5 b93e
00000110: 912e 3ebe 9d01 81be cf6a 79be ee85 593e
00000120: eb7a 17bd e57d 2a3c b54b 653d 73d0 1a3d
00000130: 99b1 ca3e 9ac6 09bd d962 a2bd 27fd ae3d
00000140: 5ca0 9ebe fbe7 a3be 925c a7be 4f97 ebbe
00000150: d59c 09be 0361 c3bd fe60 40be 79e5 37be
00000160: 4a46 943c 4017 3bbd a8a4 81bd a3a2 e53d
00000170: f841 943e 2ee9 bcbe 428d 83be 24d6 8e3d
00000180: b79c ff3d d02a 3c3e 6133 363d fb44 4b3d
00000190: 4a52 003e 7bb9 05bd 7778 c5bc 2cc1 d7bd
000001a0: 25db ffbd 6d7a b8bd 69db 963c 2630 583d
000001b0: cac1 a2bc 48c1 843d 9f78 e13c 4aa4 d53c
000001c0: c783 8fbd 89fe 933c 2524 99bd 9b4e 923d
000001d0: 88ba 9dbd 5136 c7bd 7c21 5fbe f24f 77be
000001e0: eeec 2d3e ba12 083e a8ed fa3d 26ad 40bf
000001f0: c518 05bf 7058 8dbe 7c34 85be 38f7 57be
00000200: 2573 8dbc cd41 453e 55af 183e c94e b6be
00000210: b76d c83c ab01 183e 74d9 93bd 67fb e2ba
00000220: 1611 d2bd 5eed 1cbe df27 04bd 03d1 27be
00000230: 9ed5 6c3d a07e 833c dead 92be 5979 cc3d
00000240: 3cff 0dbe 5962 d23e 8813 d2be f9de 843e
00000250: ca96 653e cd3c 20be 0b46 6fbd 0a48 7abe
00000260: 9b0e b93e 264f ebbd 535c 783c 1cee 0a3e
00000270: 3e1e 78bd 0cd4 d13c 326d 2bbd 2908 f53d
00000280: 3644 303e 5cbb 113d 8213 8f3e f0e7 003f
00000290: 7d0f 1b3d 8d74 1d3b 3974 363e 8079 08be
000002a0: d99e 90bd 9475 73be f268 cbbe 134a 9bbd
000002b0: 5b2c 97bd 7a9e 05be dfaa 48be e230 dcbe
000002c0: 1249 d0bd 09b3 ed3c 172a 343d 0602 4abd
000002d0: 0a57 0fbd 5ff6 62be a5b9 aebb 5d7b 4f3d
000002e0: ae95 243e 6c7b 0f3e 55b9 2fbe 4526 173e
000002f0: 2845 49be b8ab f7b9 252d e1bc 3d5d e3bd
00000300: 74d3 3ebe 01f4 4b3e c71a 413e 17a6 a6bd
00000310: 4ad4 debd 9002 2ebd e936 ef3d 26e8 533e
00000320: 7e7a d53d 451b 9ebe a543 14bf 1dd6 013c
00000330: a689 d73e f11f 6f3e 4c32 793e d15c 003d
00000340: 74a5 a4bc bf45 4a3d c45e a7be 6531 18be
00000350: 77e6 dcbc 7379 0c3d 87e6 aa3d a4d5 c03d
00000360: 9716 93bc 254b 573a a547 e2bc 0d7c 77be
00000370: 24d9 2f3e 19e6 863b 8323 9abf 49ae 51bf
00000380: 8627 0abf 56c1 13bf c0ae 023e 46bc 58bd
00000390: d656 c73e a6b1 4c3e d043 91bd 9335 213d
000003a0: 21bf 87be ec2e 15bf 3d3a 673d 1669 12bd
000003b0: 20f1 473e c05d 90bc f901 dcbd dbea 1e3e
000003c0: 1af1 25bd cd18 33be 7921 aebd b769 9ebb
000003d0: 7c79 1c3e b891 de3d 4a9b 3a3d 2373 22be
000003e0: 3bc9 18be 9cdb 1d3e 00fd bd3e d231 403e
000003f0: dc06 86bd ec6b 6c3d 6c5d bbbc ae01 3fbb
-0.005896589 0.062310945 -0.020204132 0.1270795 0.11548982 -0.07448217 0.07368712 -0.07631462
0.01702816 0.095813595 0.06973456 0.12939213 -0.1272978 0.042689648 0.13262318 0.061473213
0.1582847 0.14642185 0.19097488 0.055860903 -0.14867912 0.2582789 0.022104332 -0.20751844
0.48531994 0.2244665 0.12843913 -0.116390586 -0.15401042 -0.15352812 0.22403905 0.36098418
0.059127547 -0.018925207 -0.103753656 -0.18500741 0.10188104 0.070813715 0.1666474 -0.16280633
-0.06762949 -0.04451971 0.03661915 0.09917225 0.27978945 -0.017754676 0.10529287 -0.057207577
-0.05274846 0.0925562 0.03097416 -0.09361006 -0.032346357 0.1733736 -0.0007523822 0.060747504
-0.08681572 -0.18958461 -0.24089836 0.08529799 -0.014640409 0.13213246 0.1460299 -0.21802881
-0.24273925 -0.07257807 0.44250613 0.3630763 -0.18572451 -0.25196543 -0.2435715 0.21242496
-0.036982458 0.010405992 0.055980403 0.03779645 0.3958862 -0.033636667 -0.0792901 0.08544379
-0.3098172 -0.32012925 -0.32687813 -0.46013877 -0.13438733 -0.09539988 -0.18787 -0.1795863
0.018099923 -0.04567647 -0.06330234 0.11212661 0.2895658 -0.36896652 -0.2569371 0.06974438
0.12481063 0.18375707 0.044482592 0.04962633 0.12531391 -0.03264759 -0.024105294 -0.105348915
-0.124929704 -0.09007726 0.01841517 0.052780293 -0.019867796 0.06482178 0.027523337 0.026079316
-0.070075564 0.018065708 -0.07477597 0.07143899 -0.07701594 -0.09727157 -0.21790117 -0.2415159
0.16984913 0.13288394 0.122523606 -0.75264204 -0.5199092 -0.27606535 -0.26016605 -0.210904
-0.01726682 0.19263382 0.14910634 -0.35606983 0.024466379 0.14844386 -0.0721921 -0.0017317355
-0.10257165 -0.15324923 -0.032264587 -0.16388325 0.05782091 0.01605159 -0.28648275 0.09984083
-0.13866895 0.41090658 -0.41030526 0.25951365 0.22420803 -0.15648194 -0.058416408 -0.24441543
0.36143956 -0.11489706 0.015158731 0.13567394 -0.060575716 0.025613807 -0.041852184 0.11964447
0.1721352 0.03557907 0.2794457 0.5035391 0.037856568 0.0024025769 0.17817773 -0.13327599
-0.07061548 -0.23775321 -0.39728504 -0.07582488 -0.07381507 -0.13048735 -0.19596432 -0.43006045
-0.10170187 0.029016035 0.043985453 -0.049318336 -0.034995116 -0.22164296 -0.005332189 0.050654758
0.16072723 0.14011925 -0.17160542 0.14760692 -0.19655287 -0.00047239452 -0.027487347 -0.11101768
-0.1863535 0.19917299 0.18857871 -0.08137148 -0.10880335 -0.042482913 0.11680395 0.20694026
0.10423754 -0.3088018 -0.5791572 0.007924584 0.42097205 0.23352028 0.24335593 0.031338517
-0.020098425 0.04938292 -0.32689488 -0.14862593 -0.026965363 0.03429551 0.08344751 0.09415749
-0.017955108 0.00082127965 -0.027622053 -0.24168415 0.17172676 0.0041167852 -1.2042087 -0.81906563
-0.5396656 -0.5771688 0.12761974 -0.052913927 0.38933438 0.19989643 -0.07093012 0.039357733
-0.26513007 -0.5827472 0.056452025 -0.03574475 0.19525576 -0.017622828 -0.10742564 0.15519278
-0.040513135 -0.1748993 -0.08502478 -0.0048343795 0.15280718 0.108676374 0.04555825 -0.15864234
-0.14920513 0.15415806 0.37107086 0.18769005 -0.06544277 0.05772011 -0.022871695 -0.0029145288

net.conv2.bias f4 [32]
00000000: cd5a b43d fc82 623d 3d75 91bd 6731 123d
00000010: 03f0 013e a268 efbd 87ac d1bd 89aa 9abe
00000020: 80a5 21be b59b 6bbe 4389 55bc 4640 6ebe
00000030: 5219 7ebd 6e03 0dbe 98f3 bb3e 144b 90bd
00000040: 765a 6abd a2da 9cbb 44e2 acbd cee6 3dbc
00000050: fde1 463e 11aa ebbd 22fe febd abe9 4fbd
00000060: 4545 be3d 0bc8 1dbd 9168 a0bd 4819 efbd
00000070: dcd4 20bd 88ac 39be 50be 6b3e 2515 3f3d
0.088063814 0.055300698 -0.071024396 0.035691645 0.12689213 -0.11689879 -0.10237985 -0.30208233
-0.1578579 -0.23008616 -0.013033214 -0.23266706 -0.062035866 -0.1377084 0.36709285 -0.0704557
-0.057215177 -0.0047868052 -0.08441594 -0.011590673 0.19422145 -0.11507047 -0.12450816 -0.050759953
0.09290556 -0.038520854 -0.078324445 -0.11674744 -0.0392655 -0.18132222 0.23021817 0.046651024
